DigitNet.pt (torch, 422943 bytes, 6 tensors)

fc1.weight f4 [120, 784]
-0.014821674 0.0031452384 -0.010575097 0.0056950296 -0.0322467 0.00043192256 -0.014604048 -0.00419436
-0.0029934354 -0.02468369 -0.013794753 -0.006035912 0.002254337 -0.026630754 -0.0010210726 -0.015005901
-7.690026e-05 -0.039454594 -0.04241441 -0.04355103 0.014980811 -0.040039275 -0.018570483 -0.0035024043
-0.03591739 -0.028838575 -0.007789225 0.018812038 0.0036793337 -0.007935524 0.02132028 -0.017073408
-0.028063733 -0.039516672 -0.038569644 -0.025547432 -0.035595477 0.014354186 -0.035395265 -0.023410076
-0.021429429 0.0068430896 -0.03304431 -0.04257342 0.009199684 -0.014472738 -0.04827936 -0.04590412
-0.010884488 -0.024860477 -0.029741442 -0.028732188 -0.018986596 0.004558509 -0.023451548 -0.045814596
0.0022023562 -0.038793948 -0.03735225 0.012150357 0.014571092 -0.019908858 -0.0029295562 -0.005533045
-0.03942667 -0.034673125 -0.0442481 -0.015701715 0.012893602 0.003914281 -0.06473935 -0.052012485
-0.046386782 -0.073700055 -0.046889476 -0.031837296 -0.053506114 -0.061954316 -0.04010168 0.0059617553
0.015781876 0.021926248 0.0146153355 -0.032977924 0.015203931 -0.020870514 -0.0453328 -0.012759736
-0.0065125967 -0.020724934 -0.011890055 -0.023561357 0.03459523 -0.01666655 0.046055675 0.07888643
0.008671402 -0.01319804 0.0044327877 -0.058202136 -0.052451916 -0.11384731 -0.14636815 -0.10057224
-0.073102154 -0.07486702 -0.016934182 -0.0023216174 -0.042825665 0.0010993064 -0.025782363 -0.029707827
-0.02504298 -0.022245543 0.015445485 0.016891945 -0.046268437 -0.008745549 0.0019646818 -0.003011302
0.06732556 0.053045493 0.10367768 0.113877416 0.15828338 0.089742556 0.06613993 0.012857856
-0.0016172329 -0.027984153 -0.075916074 -0.19239159 -0.12797588 -0.07940655 -0.06304528 -0.07514873
-0.023003152 -0.012012123 -0.03775231 0.017701335 0.024412595 -0.03164792 0.024020385 -0.005768649
-0.016532939 -0.019476391 -0.022094397 0.028187731 0.0047889478 0.014344824 0.073677704 0.12889722
0.14970782 0.033282716 0.103983074 0.058239017 0.12226233 0.12531762 0.024300965 -0.019654246
-0.09169548 -0.055120833 -0.07263671 -0.10087733 -0.03276685 -0.022749515 0.001791041 -0.03477875
-0.000714613 0.01920953 -0.025595289 -0.02852733 -0.018055972 -0.029533068 -0.006199596 -0.013384241
0.008503874 0.008700864 -0.04951675 -0.004171306 -0.08046385 0.049789954 0.02877039 0.09756064
0.16611555 0.0831267 -0.044478096 -0.024604669 -0.110947706 -0.062469177 -0.0036901315 -0.06977028
-0.0737318 -0.0026316654 -0.009835371 -0.041114457 0.018700387 0.00021384345 0.022549057 -0.007863313
-0.01964569 -0.015987804 -0.047187585 -0.11683216 -0.05604034 -0.01062637 0.034588177 0.0033459403
-0.06806604 0.04926092 -0.027042033 0.18915075 0.055451367 0.0687614 0.044457804 -0.058087416
-0.13337855 -0.02330139 0.01347337 -0.011343545 -0.04554336 0.008516318 -0.006261114 -0.0053970893
-0.023830395 0.02088994 -0.004481363 -0.010043441 -0.0019259731 -0.05163125 -0.034796182 -0.022521969
-0.036608282 0.056530558 0.08172921 0.060914095 0.11780284 0.10684648 0.148682 0.11234542
0.31648704 0.23646232 0.10436077 0.015990932 -0.0869099 0.024958044 0.050573383 0.0054880544
-0.011905056 0.010891323 0.010734741 0.026713256 -0.018635739 -0.01825085 0.012104897 0.0010877386
00000000: 9bd6 72bc 5820 4e3b 2c43 2dbc 5f9d ba3b
00000010: 1e15 04bd aa73 e239 d145 6fbc d870 89bb
00000020: 832d 44bb 7335 cabc 6303 62bc e6c8 c5bb
00000030: 80bd 133b bd28 dabc 83d5 85ba 50db 75bc
00000040: 8345 a1b8 249b 21bd bbba 2dbd 9162 32bd
00000050: 1372 753c 3900 24bd 2021 98bc 9888 65bb
00000060: 1d1e 13bd e03e ecbc c13c ffbb b41b 9a3c
00000070: fa20 713b 0004 02bc dea7 ae3c 88dd 8bbc
00000080: eae5 e5bc 3cdc 21bd 34fb 1dbd d948 d1bc
00000090: 90cc 11bd d22d 6b3c a0fa 10bd 7dc6 bfbc
000000a0: c58c afbc ff3b e03b 7859 07bd 7761 2ebd
000000b0: 45ba 163c 101f 6dbc 94c0 45bd f505 3cbd
000000c0: da54 32bc 33a8 cbbc 53a4 f3bc c45f ebbc
000000d0: c789 9bbc 8c5f 953b 761d c0bc 16a8 3bbd
000000e0: 6855 103b 67e6 1ebd acfe 18bd 4a12 473c
000000f0: 97bb 6e3c e717 a3bc ccfd 3fbb 8c4e b5bb
00000100: dc7d 21bd 6805 0ebd 7f3d 35bd e2a0 80bc
00000110: b03f 533c 5e43 803b 1096 84bd 0b0b 55bd
00000120: 1100 3ebd 0ef0 96bd 2e0f 40bd d367 02bd
00000130: 3a29 5bbd cfc3 7dbd a941 24bd d45a c33b
00000140: fe48 813c ad9e b33c 2975 6f3c dc13 07bd
00000150: e919 793c a4f8 aabc e3ae 39bd 360e 51bc
00000160: 9f67 d5bb 56c7 a9bc 81ce 42bc bf03 c1bc
00000170: bab3 0d3d 4a88 88bc e0a4 3c3d 358f a13d
00000180: 7f12 0e3c 983c 58bc eb40 913b 5d65 6ebd
00000190: d2d7 56bd c728 e9bd 88e1 15be d2f8 cdbd
000001a0: 95b6 95bd e153 99bd 8eb9 8abc 4726 18bb
000001b0: f769 2fbd 9a16 903a 8935 d3bc d45d f3bc
000001c0: f026 cdbc 493c b6bc 0f0f 7d3c fa60 8a3c
000001d0: f983 3dbd 7e49 0fbc e4c1 003b 4459 45bb
000001e0: fce1 893d 3b46 593d f754 d43d 9038 e93d
000001f0: 0a15 223e f2ca b73d 5f74 873d c2a9 523c
00000200: 55f9 d3ba 063f e5bc e379 9bbd 4d02 45be
00000210: 1c0c 03be e79f a2bd e21d 81bd 94e7 99bd
00000220: 1b71 bcbc 7fce 44bc 2ba2 1abd 6402 913c
00000230: ecfc c73c 40a1 01bd 66c6 c43c ef06 bdbb
00000240: 1670 87bc f48c 9fbc 4fff b4bc f5e9 e63c
00000250: 9bec 9c3b 8d06 6b3c 56e4 963d a2fd 033e
00000260: 024d 193e 7553 083d 14f5 d43d 098c 6e3d
00000270: ac64 fa3d 4353 003e d112 c73c f101 a1bc
00000280: d7ca bbbd 62c6 61bd 8ec2 94bd c698 cebd
00000290: 8836 06bd 315d babc 5dc1 ea3a 2a74 0ebd
000002a0: de54 3bba 4e5d 9d3c 36ad d1bc 26b2 e9bc
000002b0: 1eea 93bc 55ef f1bc fb25 cbbb 9349 5bbc
000002c0: d553 0b3c 128e 0e3c 13d2 4abd 73af 88bb
000002d0: 3bca a4bd 8df0 4b3d e2af eb3c dfcd c73d
000002e0: 321a 2a3e 553e aa3d aa2e 36bd bb8f c9bc
000002f0: 8d38 e3bd aedf 7fbd 22d6 71bb b8e3 8ebd
00000300: b300 97bd 0578 2cbb 8924 21bc a267 28bd
00000310: 8e31 993c 2a3b 6039 cdb8 b83c 20d5 00bc
00000320: 00f0 a0bc dbf8 82bc c547 41bd b345 efbd
00000330: 8e8a 65bd 3a1a 2ebc 55ac 0d3d 9047 5b3b
00000340: 3566 8bbd d2c5 493d 4187 ddbc bcb0 413e
00000350: f920 633d c7d2 8c3d 6319 363d 12ed 6dbd
00000360: 6394 08be 8fe2 bebc 69bf 5c3c 47da 39bc
00000370: ad8b 3abd 0788 0b3c 082a cdbb 11da b0bb
00000380: f637 c3bc 6121 ab3c 66d8 92bb 3f8d 24bc
00000390: ef70 fcba 4a7b 53bd 7186 0ebd fe7f b8bc
000003a0: 91f2 15bd 968c 673d a561 a73d 0f81 793d
000003b0: 9e42 f13d 54d2 da3d 1840 183e 5b15 e63d
000003c0: 970a a23e 2e23 723e 19bb d53d 6aff 823c
000003d0: d1fd b1bd d074 cc3c 0926 4f3d 23d5 b33b
000003e0: 6d0d 43bc 8571 323c c4e0 2f3c c2d5 da3c
000003f0: faa9 98bc ce82 95bc 9e53 463c 7392 8e3a

fc1.bias f4 [120]
0.020354845 -0.015723776 -0.038937926 0.009275227 0.006720988 -0.039391316 -0.029599007 0.0018746542
0.019121038 -0.0121867005 0.0060972874 0.0017848039 -0.019342268 -0.0052321213 0.007877916 -0.02342201
-0.0063055125 0.027777515 0.02302689 -0.029551107 0.016491285 -0.062018685 -0.0026410196 0.010387877
0.004852662 -0.004394666 -0.003279944 -0.006720944 0.019290585 -0.0317939 0.026361365 0.0034532475
0.010451172 -0.014057879 -0.023711093 -0.032996472 0.038392343 -0.037258357 0.009163404 0.043356497
0.0039341687 -0.015513436 -0.004822501 0.0043562935 0.029765017 -0.016236998 -0.011445828 0.020565556
-0.042140454 0.048785914 -0.008972177 -0.011437753 -0.0025914726 -0.0069405003 0.020731384 -0.02245037
-0.014742676 -0.0018554674 -0.036979157 0.044165466 -0.024348231 0.0019877036 0.01947098 -0.026208714
-0.052706875 0.0022617783 -0.03070399 -0.029399777 -0.0201018 -0.012053717 -0.043564856 -0.007642463
0.003092832 -0.03566905 -0.011297572 0.04329775 -0.009792105 0.018384853 0.027960002 -0.040902674
0.03372491 0.008334784 -0.026742753 0.010970351 0.031470295 -0.0072650565 0.00080650137 0.03867867
-0.038749184 0.031873405 -0.0037423342 -0.026209103 -0.0030291409 -0.036928106 -0.00085173093 0.012971803
-0.03582795 -0.026653966 -0.039170425 0.021658795 0.04163459 -0.015090114 -0.02346384 -0.021957962
0.006725212 0.016243108 0.03737173 0.052162897 0.0026619108 0.0050625 -0.039735302 -0.0075051007
-0.036193065 0.038658187 0.037243973 0.014532374 0.023016267 -0.0274552 0.02772241 -0.037994772
00000000: 34bf a63c 26cf 80bc 607d 1fbd 1ff7 173c
00000010: bc3b dc3b ca58 21bd 9e79 f2bc f5b6 f53a
00000020: b9a3 9c3c baaa 47bc c1cb c73b 15f0 e93a
00000030: ad73 9ebc 3772 abbb 6012 013c 84df bfbc
00000040: 799e cebb ac8d e33c e3a2 bc3c 2a15 f2bc
00000050: bb18 873c 4e07 7ebd f514 2dbb ea31 2a3c
00000060: 1403 9f3b 2101 90bb 54f4 56bb 5d3b dcbb
00000070: 4a07 9e3c 523a 02bd caf3 d73c e14f 623b
00000080: 643b 2b3c 0553 66bc c43d c2bc 4f27 07bd
00000090: 4a41 1d3d 389c 18bd 1a22 163c 9596 313d
000000a0: 33ea 803b 112c 7ebc 1206 9ebb 3dbf 8e3b
000000b0: c4d5 f33c 7403 85bc 4887 3bbc 1979 a83c
000000c0: 789b 2cbd bdd3 473d 0a00 13bc 6a65 3bbc
000000d0: b2d5 29bb 236d e3bb ddd4 a93c d7e9 b7bc
000000e0: 448b 71bc 2833 f3ba 7577 17bd d9e6 343d
000000f0: f175 c7bc 2244 023b 9b81 9f3c a8b3 d6bc
00000100: 2ae3 57bd 583a 143b ef86 fbbc cdd7 f0bc
00000110: 88ac a4bc f47c 45bc 1071 32bd a06d fabb
00000120: 1cb1 4a3b b619 12bd 7419 39bc fb58 313d
00000130: 116f 20bc d59b 963c 600c e53c 9089 27bd
00000140: 2223 0a3d 9e8e 083c 9e13 dbbc fdbc 333c
00000150: ffe6 003d b60f eebb 646b 533a 866d 1e3d
00000160: 77b7 1ebd b08d 023d f341 75bb 79b4 d6bc
00000170: 8d84 46bb ed41 17bd b246 5fba af87 543c
00000180: 54c0 12bd 6b59 dabc 2b71 20bd c96d b13c
00000190: 0889 2a3d 873c 77bc 3d37 c0bc 2fe1 b3bc
000001a0: 2b5f dc3b 4410 853c 1913 193d c3a8 553d
000001b0: 7473 2e3b 54e3 a53b 7cc1 22bd 59ed f5bb
000001c0: 2e3f 14bd 0c58 1e3d 238d 183d 3219 6e3c
000001d0: 9c8c bc3c bae9 e0bc 1c1a e33c 68a0 1bbd

fc2.weight f4 [84, 120]
-0.03714598 -0.12650333 0.06622967 -0.0035298392 -0.010975182 -0.06821057 -0.010029502 0.04211038
0.045455635 -0.037595544 0.00089225033 -0.08870819 -0.08868823 -0.12365313 -0.009079793 -0.07048828
0.03739527 0.07200423 -0.078591034 -0.029229853 -0.10461804 -0.07412805 0.028371168 0.031748433
0.025625609 0.0178686 0.073056504 0.014992341 -0.077059224 -0.01874724 0.008290759 0.08191985
0.036899418 -0.092591554 0.05570463 -0.022397807 -0.07378461 -0.010828726 -0.021536442 0.02888119
-0.10893986 0.060662717 0.017680205 -0.06323252 -0.105815865 0.030930778 -0.02543611 0.060580105
-0.0525709 -0.044587474 -0.09348013 -0.049168903 -0.07714271 0.068946585 0.037985295 -0.048796553
-0.10072719 -0.08548541 -0.07730264 -0.07616435 0.01709843 -0.11035407 -0.059963137 -0.0028801423
-0.058416802 -0.05376695 -0.036576096 -0.06765178 0.054211836 -0.088282384 -0.046032414 -0.044674784
-0.058178317 0.0047315657 0.03491348 -0.022638213 0.08263691 -0.08622995 -0.053248346 0.021170208
0.06377519 -0.0825989 0.041952852 0.012234598 -0.02376881 0.04141948 -0.0068459776 -0.024505647
-0.074389964 -0.0519763 0.06123236 0.0558005 -0.0019090069 -0.11179276 -0.09438499 0.024944715
-0.05171403 -0.06204217 0.08367926 -0.13015369 -0.12903443 -0.10712001 0.020473387 0.028208911
0.09089313 0.058134064 -0.10554463 -0.05265702 -0.063932866 0.045377646 0.040976003 -0.07222523
-0.038835734 -0.0034584017 -0.007558244 0.031031426 0.064994544 -0.06422537 -0.099981055 -0.07615691
0.1419002 -0.030642964 -0.08014448 -0.07276312 -0.041219912 0.1475004 0.08492713 0.032821722
-0.053749975 -0.03788684 0.055062182 0.13323025 0.07836584 -0.063910596 -0.07229391 -0.14926623
0.04889151 0.09187926 -0.009309335 -0.11358005 0.11537891 0.06284477 0.042117257 0.014828007
-0.020480357 0.12572108 -0.0712712 0.08814257 0.11625369 -0.1603666 0.012174436 0.0423146
-0.055475533 -0.06905205 -0.25805354 0.06261386 0.06771622 -0.04931768 0.12544711 0.18236807
-0.12271202 0.0606455 0.034620877 -0.12897643 0.02283881 0.16291322 0.07654618 -0.08854217
-0.021934362 -0.05598623 -0.040609118 -0.13806455 -0.0050571817 -0.027834298 0.026241787 0.014120725
-0.33939156 0.084534526 0.08104485 -0.11620782 0.091181524 -0.27743983 -0.0142803695 -0.021857973
-0.05576979 0.121309854 -0.0647408 -0.0593317 0.18289414 0.14257386 0.114538796 0.000938169
-0.053214595 0.052380357 -0.03532081 0.096445836 0.018743625 0.08381272 0.021655086 0.10335597
-0.087479144 -0.04303583 0.08440827 0.028918982 0.11180571 -0.067489766 0.038281683 0.19974516
-0.16687855 0.07525079 -0.010670342 0.05068643 -0.057915665 0.007838039 -0.02506903 0.024708906
-0.045624588 0.035058342 0.045766678 -0.214076 0.05605874 -0.078860134 -0.06809896 -0.029720012
0.23544566 0.063996725 0.060296733 0.18073113 -0.14542773 0.0467883 0.089118965 -0.06566098
-0.15901239 0.0064306827 -0.017044783 -0.27009952 0.04021849 -0.10067489 0.2904548 0.07760281
0.017424736 -0.112159066 0.07592233 0.018173123 -0.02856002 0.103411086 -0.05654652 0.2698598
0.07964435 0.11628317 0.012677694 0.10803448 -0.09381748 0.026012173 -0.05846652 0.13543575
00000000: 6226 18bd 178a 01be 6ca3 873d e054 67bb
00000010: 40d1 33bc fcb1 8bbd c852 24bc ef7b 2c3d
00000020: b02f 3a3d c9fd 19bd e8e5 693a a4ac b5bd
00000030: 2da2 b5bd da3d fdbd 69c3 14bc 295c 90bd
00000040: c82b 193d f476 933d 56f4 a0bd 7273 efbc
00000050: fc41 d6bd 72d0 97bd a76a e83c a50a 023d
00000060: ccec d13c 2c61 923c a69e 953d 70a2 753c
00000070: 3ad1 9dbd d093 99bc f7d5 073c 98c5 a73d
00000080: d823 173d a4a0 bdbd 8a2a 643d 9b7b b7bc
00000090: 631c 97bd f86a 31bc 316d b0bc 3f98 ec3c
000000a0: dc1b dfbd 7879 783d 14d6 903c 0d80 81bd
000000b0: fdb5 d8bd 8b62 fd3c 645f d0bc d822 783d
000000c0: 9654 57bd 5ba1 36bd 8372 bfbd 5565 49bd
000000d0: fffc 9dbd de33 8d3d 7896 1b3d e5de 47bd
000000e0: 0f4a cebd fa12 afbd d950 9ebd 0efc 9bbd
000000f0: 0212 8c3c 5101 e2bd e89b 75bd c5c0 3cbb
00000100: 7546 6fbd bc3a 5cbd d1d0 15bd 048d 8abd
00000110: 3b0d 5e3d 65cd b4bd 7c8c 3cbd e8fc 36bd
00000120: 634c 6ebd 400b 9b3b 7001 0f3d c673 b9bc
00000130: 8a3d a93d 5499 b0bd f01a 5abd 256d ad3c
00000140: 919c 823d 9d29 a9bd c1d6 2b3d a073 483c
00000150: cfb6 c2bc 79a7 293d 3954 e0bb 11c0 c8bc
00000160: c459 98bd 1ae5 54bd c8ce 7a3d 118f 643d
00000170: a437 faba 9af3 e4bd eb4c c1bd dc58 cc3c
00000180: 17d2 53bd ee1f 7ebd 0860 ab3d 0247 05be
00000190: 9a21 04be bc61 dbbd ceb7 a73c 6016 e73c
000001a0: 2d26 ba3d fc1d 6e3d c827 d8bd e3ae 57bd
000001b0: 3cef 82bd e9dd 393d 74d6 273d d2ea 93bd
000001c0: 3812 1fbd 5aa6 62bb 25ab f7bb 9e35 fe3c
000001d0: dc1b 853d 9788 83bd dec2 ccbd 27f8 9bbd
000001e0: 494e 113e f406 fbbc ca22 a4bd d504 95bd
000001f0: 36d6 28bd 580a 173e 46ee ad3d 1270 063d
00000200: ef28 5cbd 3b2f 1bbd e288 613d 836d 083e
00000210: 457e a03d 8fe3 82bd d40e 94bd 3fd9 18be
00000220: 7742 483d 322b bc3d 2e86 18bc a89c e8bd
00000230: c74b ec3d c2b4 803d 2583 2c3d 2bf1 723c
00000240: 6cc6 a7bc 07bd 003e a3f6 91bd 1784 b43d
00000250: 6a16 ee3d 2437 24be 4977 473c 1352 2d3d
00000260: 503a 63bd 296b 8dbd 981f 84be b23b 803d
00000270: cdae 8a3d 5601 4abd 3575 003e b2be 3a3e
00000280: 7150 fbbd 6a67 783d 9fce 0d3d 6612 04be
00000290: 7518 bb3c b9d2 263e 3ec4 9c3d 9955 b5bd
000002a0: b1af b3bc d151 65bd bf55 26bd cb60 0dbe
000002b0: b7b6 a5bb c104 e4bc 04f9 d63c 9d5a 673c
000002c0: bbc4 adbe 7020 ad3d d8fa a53d 5efe edbd
000002d0: 61bd ba3d 980c 8ebe 36f8 69bc 7e0f b3bc
000002e0: dd6e 64bd 4d71 f83d d396 84bd cc05 73bd
000002f0: 9a48 3b3e e2fe 113e 5193 ea3d 75ef 753a
00000300: 8cf7 59bd c98c 563d 8eac 10bd 6585 c53d
00000310: 3b8c 993c 01a6 ab3d 0266 b13c 4bac d33d
00000320: 4428 b3bd 5746 30bd 3ede ac3d 80e7 ec3c
00000330: 64fa e43d 1338 8abd 41cd 1c3d ff89 4c3e
00000340: 36e2 2abe 161d 9a3d a8d2 2ebc 939c 4f3d
00000350: fa38 6dbd 1e6b 003c 915d cdbc 556a ca3c
00000360: d9e0 3abd 5699 0f3d d775 3b3d bd36 5bbe
00000370: d99d 653d 6c81 a1bd 7877 8bbd 6277 f3bc
00000380: ab18 713e b710 833d b5f9 763d 9511 393e
00000390: 02eb 14be 17a5 3f3d 0184 b63d 4479 86bd
000003a0: 25d4 22be 7ab8 d23b 80a1 8bbc 7c4a 8abe
000003b0: 25bc 243d a32e cebd 7eb6 943e 39ee 9e3d
000003c0: 52be 8e3c a7b3 e5bd 2b7d 9b3d cddf 943c
000003d0: b4f6 e9bc 31c9 d33d 539d 67bd 102b 8a3e
000003e0: 941c a33d df25 ee3d 1ab6 4f3c 2e41 dd3d
000003f0: 6123 c0bd 7b17 d53c 977a 6fbd abaf 0a3e

fc2.bias f4 [84]
-0.08086944 -0.06292023 0.012853681 0.07351457 -0.117724925 0.124670565 0.09734403 0.07676767
-0.053684313 0.07408003 0.10849095 -0.021099305 -0.08552382 -0.059699163 -0.04971932 0.052037764
0.08768487 -0.12517786 0.06388773 -0.01853535 -0.090372875 -0.011037155 -0.101625204 0.09277586
0.033842694 0.032254085 0.053064533 0.024422185 -0.061670445 -0.00042907704 0.0005065958 0.0030886831
0.036644682 0.057665102 -0.058608234 -0.11962781 -0.04167148 0.102169305 0.025834847 -0.015961353
-0.023201287 0.007374909 0.034434494 -0.14239874 -0.13672905 0.031026725 -0.03019631 -0.068762414
0.07547412 -0.055240173 0.0044538006 -0.05836204 -0.012868663 0.017497718 -0.086890556 0.04528979
-0.092177115 0.050838847 -0.040595748 -0.046584178 -0.088251054 0.045686226 -0.071741186 0.048715685
0.02545427 0.0916006 -0.07611085 0.061855745 0.06500444 -0.013521217 -0.026379764 0.012903449
0.107693225 0.1367355 0.0021119812 0.047686964 -0.086694226 -0.042956244 -0.08632253 0.07564217
0.16216728 0.003850415 0.035186954 -0.054371424
00000000: e19e a5bd 52dc 80bd 3f98 523c cf8e 963d
00000010: c419 f1bd 4853 ff3d 4f5c c73d 5e38 9d3d
00000020: 15e4 5bbd 45b7 973d 8130 de3d 73d8 acbc
00000030: 1d27 afbd 1c87 74bd 7ca6 4bbd 8d25 553d
00000040: 2094 b33d a02e 00be 92d7 823d 72d7 97bc
00000050: 6a15 b9bd 2fd5 34bc e020 d0bd 4501 be3d
00000060: a39e 0a3d dc1c 043d 325a 593d 0911 c83c
00000070: 269a 7cbd bff5 e0b9 12cd 043a 816b 4a3b
00000080: bc18 163d 3e32 6c3d 300f 70bd 6dff f4bd
00000090: b7af 2abd 243e d13d 9aa3 d33c 62c1 82bc
000000a0: a010 bebc 38a9 f13b 2f0b 0d3d fad0 11be
000000b0: b302 0cbe c22b fe3c 405e f7bc 4fd3 8cbd
000000c0: 2d92 9a3d 8543 62bd 30f1 913b 090d 6fbd
000000d0: 16d7 52bc 6057 8f3c adf3 b1bd c981 393d
000000e0: 5bc7 bcbd 653c 503d ba47 26bd 0dcf 3ebd
000000f0: f8bc b4bd 7b21 3b3d 0bed 92bd 198a 473d
00000100: 7985 d03c 1899 bb3d 01e0 9bbd 735c 7d3d
00000110: 0c21 853d 1888 5dbc 601a d8bc fd68 533c
00000120: 448e dc3d 6404 0c3e 2a69 0a3b 6853 433d
00000130: be8c b1bd e3f2 2fbd dec9 b0bd 48ea 9a3d
00000140: 2e0f 263e 3f57 7c3b 3220 103d 92b4 5ebd

fc3.weight f4 [10, 84]
-0.036695834 0.16472605 -0.22576237 -0.14407004 0.093659215 0.12018366 -0.08427441 -0.23217937
-0.38785917 0.061065968 -0.054091856 -0.17508547 -0.0062665977 -0.3703704 -0.016330985 0.110489056
-0.26654148 0.0017450724 0.1324418 -0.0028549405 0.0606206 -0.020646477 -0.10136401 -0.1729873
0.1479274 -0.061718643 0.02985123 -0.1634414 -0.09045961 0.09732406 0.1020791 0.09612837
-0.0686685 -0.04841412 -0.29536468 -0.021140298 0.14083704 0.06984604 -0.07534366 -0.16326389
-0.03689604 -0.011397208 -0.49427608 0.07742143 -0.14012267 0.0007641499 0.038769636 0.021302588
0.0086435545 -0.17642586 0.26088366 -0.28873563 -0.27963609 -0.26561025 -0.1776406 0.20192471
-0.14812338 -0.031786557 -0.30220217 0.0910337 0.16416453 -0.020504063 0.14284694 0.13680291
-0.38913998 0.1004594 -0.012144504 0.033632226 -0.10972917 0.05933163 0.1340858 0.07352382
0.10065621 -0.0015856238 0.0805002 -0.1504189 -0.116810665 0.059220485 -0.11770546 0.13746934
-0.05266836 -0.09213005 -0.13100103 0.096127585 -0.10790968 -0.09383609 0.18685396 -0.017753754
-0.021886831 -0.12346203 -0.27819514 -0.108060725 0.1192856 0.14587714 -0.07998468 -0.25360054
-0.060571507 -0.014886912 -0.0076414035 0.11991164 -0.10613645 0.11417202 0.058355372 -0.29766908
0.049382277 0.092418075 -0.022735467 0.11884691 0.042599168 0.1565818 0.2525804 0.05316664
0.09787707 -0.17755875 -0.009128275 -0.02351165 0.048936155 0.18795729 0.18160479 0.059047684
0.05928509 0.14177267 -0.1245884 0.114056334 -0.02700477 0.08196351 0.2513293 0.0048060054
0.1753477 -0.32385394 -0.19536875 -0.01728305 0.07822077 -0.08798503 -0.6949861 0.008963621
-0.12276016 -0.074043155 -0.038140524 -0.18365529 0.15730606 0.06385198 -0.04018575 -0.0027982066
-0.09858129 0.06797583 -0.08090986 -0.26615536 0.02449961 -0.026906103 -0.05406637 -0.027211046
0.096227236 0.0029257967 -0.1657561 -0.03353908 -0.25051925 -0.019295229 -0.14533624 0.068050906
0.5036021 0.058374755 0.060093157 -0.039591465 -0.28320694 -0.016059738 0.09384242 -0.16517536
0.028530044 0.19948769 0.22466433 0.09089808 -0.15578046 0.10374858 0.054962434 0.17620389
0.047939803 -0.13258177 0.08628038 -0.094827116 -0.077839665 0.11483617 0.023421807 0.1513549
-0.23041378 0.091702774 -0.10285533 -0.0118055735 0.008262561 -0.06393681 0.020921359 -0.12347001
0.13629031 -0.2668243 -0.33099705 -0.16951357 -0.07803697 0.1186051 0.08490152 0.05293188
-0.029003145 -0.38640967 0.2095565 0.14061125 0.11165335 0.06655732 -0.15455684 -0.16581169
0.15044023 0.14223756 0.33246952 0.038445037 -0.31429496 -0.031659495 -0.14381205 0.11178754
0.01608581 -0.2707276 -0.17607947 -0.37008178 -0.09999507 -0.17608355 -0.018349497 -0.027815288
-0.22851424 -0.021276288 0.21537238 0.08006841 -0.06831003 -0.038494445 -0.1389194 -0.001754819
0.21984307 -0.055760752 0.06651176 -0.10708848 0.07616589 0.07365187 0.16081792 0.0742083
-0.024967942 -0.18868235 0.24339978 0.17766108 -0.08663585 0.27670246 0.07101942 -0.4776839
0.0072204983 -0.007386501 -0.13174759 0.06965543 -0.10871545 -0.22118606 0.029214397 0.10027979
00000000: 5f4e 16bd f2ad 283e 402e 67be 1987 13be
00000010: 67d0 bf3d da22 f63d 1098 acbd 6ec0 6dbe
00000020: 7a95 c6be 4f20 7a3d 6c8f 5dbd 9b49 33be
00000030: 0858 cdbb 30a1 bdbe 8fc8 85bc 1648 e23d
00000040: 2078 88be eaba e43a d39e 073e f419 3bbb
00000050: 4e4d 783d cd22 a9bc ef97 cfbd 9523 31be
00000060: 487a 173e b0cc 7cbd 918a f43c 2f5d 27be
00000070: e342 b9bd d651 c73d d90e d13d f3de c43d
00000080: 12a2 8cbd e24d 46bd 0a3a 97be 6b2e adbc
00000090: 9637 103e 710b 8f3d c74d 9abd a62e 27be
000000a0: 4d20 17bd 5bbb 3abc c111 fdbe 208f 9e3d
000000b0: 517c 0fbe 3b51 483a e9cc 1e3d c482 ae3c
000000c0: b29d 0d3c fba8 34be 8b92 853e 28d5 93be
000000d0: 762c 8fbe 11fe 87be 6be7 35be 5ac5 4e3e
000000e0: a8ad 17be 9f32 02bd 3eba 9abe e06f ba3d
000000f0: bf1a 283e 23f8 a7bc 7846 123e 1016 0c3e
00000100: 5b3d c7be a8bd cd3d bef9 46bc f2c1 093d
00000110: b0b9 e0bd b905 733d ca4d 093e a893 963d
00000120: d824 ce3d b5d4 cfba 4add a43d 6a07 1abe
00000130: 6e3a efbd 2e91 723d 8f0f f1bd c3c4 0c3e
00000140: c7ba 57bd aeae bcbd 2225 06be 8ade c43d
00000150: c0ff dcbd 232d c0bd a556 3f3e 5270 91bc
00000160: 034c b3bc a9d9 fcbd 986f 8ebe f14e ddbd
00000170: 024c f43d d160 153e 02cf a3bd eed7 81be
00000180: d419 78bd 3ce8 73bc bd64 fabb 3c94 f53d
00000190: 115e d9bd 05d3 e93d 0b06 6f3d 1568 98be
000001a0: 1245 4a3d b045 bd3d bb3f babc 0266 f33d
000001b0: 777c 2e3d fb56 203e 3852 813e 43c5 593d
000001c0: c673 c83d f6d1 35be c38e 15bc 819b c0bc
000001d0: 4771 483d e077 403e 9bf6 393e fcdb 713d
000001e0: ecd4 723d db2c 113e 3428 ffbd 5e96 e93d
000001f0: 1b39 ddbc 7cdc a73d 3cae 803e b27b 9d3b
00000200: 598e 333e 2fd0 a5be bf0e 48be 2f95 8dbc
00000210: 3632 a03d 7f31 b4bd 9cea 31bf 27dc 123c
00000220: ae69 fbbd f0a3 97bd 3d39 1cbd 2210 3cbe
00000230: d714 213e d4c4 823d d099 24bd 1e62 37bb
00000240: fde4 c9bd e936 8b3d 12b4 a5bd 8445 88be
00000250: 68b3 c83c 306a dcbc b374 5dbd b3e9 debc
00000260: c912 c53d b9be 3f3b f8bb 29be 4660 09bd
00000270: 0f44 80be 0711 9ebc 06d3 14be 465e 8b3d
00000280: 11ec 003f 5e1a 6f3d 3e24 763d a92a 22bd
00000290: 8000 91be b68f 83bc 7430 c03d bb23 29be
000002a0: d7b7 e93c 8046 4c3e 680e 663e c628 ba3d
000002b0: ea84 1fbe 237a d43d 4a20 613d cb6e 343e
000002c0: 875c 443d 84c3 07be c5b3 b03d b834 c2bd
000002d0: 676a 9fbd 3a2f eb3d 17df bf3c c7fc 1a3e
000002e0: 97f1 6bbe aace bb3d d1a5 d2bd 2a6c 41bc
000002f0: b15f 073c 4df1 82bd 4563 ab3c d8dd fcbd
00000300: b08f 0b3e 329d 88be 7278 a9be f794 2dbe
00000310: d9d1 9fbd 3be7 f23d d9e0 ad3d 19cf 583d
00000320: 0198 edbc 7dd7 c5be fb95 563e 65fc 0f3e
00000330: 83aa e43d 344f 883d 2644 1ebe 8aca 29be
00000340: 010d 1a3e b9a6 113e 7239 aa3e 8b78 1d3d
00000350: 45eb a0be 63ad 01bd 7743 13be def0 e43d
00000360: 63c6 833c cf9c 8abe 2d4e 34be 5c7b bdbe
00000370: 37ca ccbd 3f4f 34be af51 96bc e3dc e3bc
00000380: a3ff 69be 9c4b aebc 948a 5c3e e8fa a33d
00000390: 21e6 8bbd 5aac 1dbd e340 0ebe f401 e6ba
000003a0: 8b1e 613e 6365 64bd 5137 883d 3451 dbbd
000003b0: ddfc 9b3d cbd6 963d 74ad 243e 85fa 973d
000003c0: 9289 ccbc f235 41be cb3d 793e c9ec 353e
000003d0: 236e b1bd f2ab 8d3e a172 913d fc92 f4be
000003e0: ee99 ec3b 760a f2bb d7e8 06be 82a7 8e3d
000003f0: 35a6 debd 997e 62be 0853 ef3c 7e5f cd3d

fc3.bias f4 [10]
0.06814147 0.046216458 -0.02662017 0.008583148 -0.016798362 0.044053454 0.06225159 -0.04059321
0.1539308 0.1254038
00000000: c18d 8b3d 784d 3d3d 8b12 dabc 55a0 0c3c
00000010: b89c 89bc 6571 343d 86fb 7e3d 1145 26bd
00000020: 09a0 1d3e db69 003e
