DigitNet.pt (torch, 847763 bytes, 10 tensors)

fc1.weight f4 [200, 784]
-0.024821341 -0.03465414 -0.014793729 -0.0040619783 0.014509644 0.01788944 0.03146236 -0.004699204
-0.016915679 0.016694989 -0.020725746 0.029966641 0.017556343 -0.0043569542 -0.024462441 0.002467908
0.03302781 -0.03186149 0.006118998 0.0093085915 0.007300347 -0.03298772 -0.035519507 -0.007283995
-0.013274666 0.010592077 0.032333624 -0.000259839 -0.030523356 0.00629548 -0.03555154 0.022460103
-0.027947243 -0.03446178 -0.03126677 0.017677564 -0.023488156 -0.0020795949 -0.012027405 -0.023608848
-0.022845149 -0.021746432 0.0027920417 0.026675228 -0.016829351 -0.02650043 -0.023427367 0.030656714
-0.03295478 -0.008253902 0.029604148 0.0020783506 -0.00787087 -0.0095554385 -0.0043259673 -0.019318003
0.032463055 -0.019794755 -0.0134158265 0.025777455 -0.00065309927 0.027379852 -0.02552434 -0.015857603
-0.030578526 -0.0034484938 -0.03314191 -0.03302687 -0.027601331 -0.009401662 0.033244457 0.009614702
-0.022345876 0.0004923381 -0.012719117 0.012508232 -0.025763895 -0.0007149689 -0.014360046 -0.024223436
0.024641532 -0.011373665 0.034904104 -0.0062971935 -0.018307626 -0.03232254 0.034790386 -0.030437369
0.033039074 -0.017981607 0.010486577 -0.025376216 0.013141662 -0.034105714 0.019162167 0.013041247
-0.020966893 -0.021900779 -0.029736498 0.016544614 -0.031571057 0.023920003 -0.03388225 -0.029536355
-0.033310287 -0.020124063 -0.016626013 -0.014856458 0.020924926 0.007281296 0.021136623 -0.023261812
0.015184216 -0.029128779 0.028133187 -0.017595168 0.01627997 -0.005875107 -0.009494433 0.02105603
0.023081303 0.011037752 -0.0042054392 -0.005743943 0.032288905 0.024793342 0.023956943 -0.0022622757
-0.034233984 0.02940208 0.019750383 0.0066328235 -0.035652574 -0.0027639605 -0.021335075 0.011458598
0.032507475 -0.00386725 -0.03283633 0.029508542 -0.028806116 0.008779068 -0.019215746 -0.015071746
-0.029226534 0.00039928406 0.020434134 -0.020348087 0.027341824 0.01029389 -0.006237887 -0.023245651
-0.01703096 -0.0029872917 -0.028706364 0.035364535 0.01807088 0.034820776 0.026067208 0.014819846
-0.012272818 -0.022556331 0.024593994 0.013135828 -0.0033715703 0.024829924 0.024551481 -0.034849335
0.0025579706 0.015901417 0.017829776 0.017378096 -0.030658595 0.027798157 -0.029216908 -0.005448239
0.0034148693 0.0262064 0.0012875721 0.01777165 -0.020840462 0.0032077655 0.005064752 0.015801921
-0.0024223104 0.019743238 0.024818644 -0.000808917 0.03550702 0.026856866 0.014891114 0.028605577
-0.007970657 0.034400236 -0.020682693 -0.026533626 0.015106872 0.0127193 -0.012161158 0.008323699
-0.020737339 -0.010182982 -0.016678266 0.02413575 -0.0269542 0.027944442 -0.028648462 0.01648419
-0.016934698 0.015490584 -0.023177974 -0.0024728812 -0.025395846 -0.0059342943 -0.024942275 0.0037373938
-0.02235609 -0.00049228594 -0.0015266053 -0.03190289 0.020341337 0.03098398 -0.01759832 0.0073241554
-0.033053026 0.031964753 -0.02169297 -0.007806735 0.0090852715 -0.0059108566 -0.0025996864 0.03234754
-0.023665719 0.009998396 -0.026863664 -0.03100968 -0.020755406 -0.0048255417 -0.026731461 0.010519676
0.026771173 -0.015902333 0.0259998 -0.007623421 0.021094456 -0.02662915 0.008616243 -0.010155665
-0.017821986 0.025286581 -0.0028457865 0.028888088 -0.033156 -0.024956942 -0.00942857 0.022284862
00000000: 2056 cbbc 80f1 0dbd 6661 72bc 581a 85bb
00000010: dcb9 6d3c e08c 923c adde 003d c8fb 99bb
00000020: c092 8abc eec3 883c 0ac9 a9bc 9a7c f53c
00000030: 52d2 8f3c c8c4 8ebb 7565 c8bc a0bc 213b
00000040: 2b48 073d 3281 02bd e081 c83b 1083 183c
00000050: c037 ef3b 221e 07bd e77c 11bd 94ae eebb
00000060: fc7d 59bc 648a 2d3c 4370 043d 003b 88b9
00000070: 1e0c fabc 504a ce3b 7e9e 11bd 40fe b73c
00000080: 9ef1 e4bc cc27 0dbd 9611 00bd 8ad0 903c
00000090: 3c6a c0bc d049 08bb 980e 45bc 5867 c1bc
000000a0: c025 bbbc 9325 b2bc b0fa 363b 0286 da3c
000000b0: b5dd 89bc 6e17 d9bc c0ea bfbc ca23 fb3c
000000c0: 97fb 06bd 603b 07bc 6684 f23c f034 083b
000000d0: d2f4 00bc 6a8e 1cbc d8c0 8dbb ca40 9ebc
000000e0: fbf7 043d 9c28 a2bc 0ece 5bbc 3e2b d33c
000000f0: c034 2bba b64b e03c 6c18 d1bc cee7 81bc
00000100: d17f fabc 2000 62bb d0bf 07bd 2f47 07bd
00000110: 301c e2bc 6e09 1abc 572b 083d fc86 1d3c
00000120: b30e b7bc 4010 013a d863 50bc 54ef 4c3c
00000130: ce0e d3bc c06c 3bba 6646 6bbc 3a70 c6bc
00000140: 0add c93c 9c58 3abc 9bf7 0e3d b058 cebb
00000150: e0f9 95bc a464 04bd 5d80 0e3d ca57 f9bc
00000160: fb53 073d 2a4e 93bc e4cf 2b3c c8e1 cfbc
00000170: 2050 573c 6fb2 0bbd faf9 9c3c f4aa 553c
00000180: c3c2 abbc 4369 b3bc f599 f3bc 9288 873c
00000190: a750 01bd e2f3 c33c 1dc8 0abd 3af6 f1bc
000001a0: 5e70 08bd 38db a4bc 4733 88bc 8068 73bc
000001b0: c06a ab3c f097 ee3b b626 ad3c 8e8f bebc
000001c0: 38c7 783c 7a9f eebc 9277 e63c be23 90bc
000001d0: 925d 853c f883 c0bb 8a8e 1bbc b27d ac3c
000001e0: 0015 bd3c b0d7 343c c8cd 89bb b037 bcbb
000001f0: 5f41 043d 681b cb3c 5a41 c43c b042 14bb
00000200: ef38 0cbd a2dc f03c 8ecb a13c 2858 d93b
00000210: 6f08 12bd 9023 35bb e5c6 aebc d8bc 3b3c
00000220: 8f26 053d b071 7dbb 637f 06bd e6bb f13c
00000230: cefa ebbc 14d6 0f3c 576a 9dbc 7cef 76bc
00000240: 7c6c efbc 0057 d139 7c65 a73c 08b1 a6bc
00000250: f6fb df3c b4a7 283c 3067 ccbb aa6d bebc
00000260: 8384 8bbc 70c6 43bb 9c29 ebbc 67da 103d
00000270: 6209 943c 3ba0 0e3d e68a d53c f0ce 723c
00000280: ee13 49bc 0ec8 b8bc 5879 c93c a837 573c
00000290: 90f5 5cbb 2068 cb3c 3020 c93c 2dbe 0ebd
000002a0: a0a3 273b b043 823c c00f 923c 825c 8e3c
000002b0: bc27 fbbc f6b8 e33c 4c58 efbc 2487 b2bb
000002c0: 00cc 5f3b ceae d63c c0c3 a83a da95 913c
000002d0: 9eb9 aabc 6039 523b 38f6 a53b 0873 813c
000002e0: a0bf 1ebb 92bc a13c 7850 cb3c 800d 54ba
000002f0: cf6f 113d ee02 dc3c dcf9 733c 3e56 ea3c
00000300: 5c97 02bc 43e7 0c3d c06e a9bc 0c5d d9bc
00000310: d082 773c 9c64 503c 983f 47bc 2060 083c
00000320: 5ae1 a9bc 86d6 26bc dca0 88bc 56b8 c53c
00000330: 0ecf dcbc beeb e43c 2eb0 eabc da09 873c
00000340: a3ba 8abc 38cc 7d3c bcdf bdbc 1010 22bb
00000350: f30a d0bc 7874 c2bb be53 ccbc 10ef 743b
00000360: 1e24 b7bc c00c 01ba 6018 c8ba 9bac 02bd
00000370: e0a2 a63c 1ed2 fd3c 5a2a 90bc 78ff ef3b
00000380: 9c62 07bd 79ed 023d 75b5 b1bc a4cf ffbb
00000390: 64da 143c dcaf c1bb 805f 2abb db7e 043d
000003a0: 9cde c1bc 50d0 233c 3011 dcbc 0308 febc
000003b0: 3e07 aabc 941f 9ebb f0fb dabc b85a 2c3c
000003c0: 384f db3c 9c45 82bc 88fd d43c e4cd f9bb
000003d0: 48ce ac3c 6025 dabc 242b 0d3c f263 26bc
000003e0: 6aff 91bc ce25 cf3c 6080 3abb b6a6 ec3c
000003f0: 96ce 07bd 8072 ccbc 4a7a 1abc be8e b63c

fc1.bias f4 [200]
0.0076385923 -0.0008227341 0.028760027 -0.03212677 0.0037123486 0.013756752 0.03521282 0.010441717
-0.01504145 -0.022858262 -0.029785367 0.023081016 0.01214423 -0.027173694 0.02397151 -0.02485533
0.008922346 -0.03174285 0.016727272 0.024579495 -0.031192752 0.0038255155 -0.015733792 -0.003156837
-0.03378413 0.00032350048 -0.021544645 -0.016444616 -0.017422324 -0.006559793 -0.011980871 0.014919788
-0.034779772 -0.022633307 -0.010276526 -0.0014644563 -0.034670226 -0.014151944 0.016559422 0.011174325
0.0069230273 -0.033364136 -0.013680046 -0.015221763 0.012362618 -0.00010463223 0.0039904043 0.024032556
-0.025838044 -0.016374988 -0.02204284 0.003782779 -0.019745432 0.030470144 0.0348058 -0.014065228
0.03062902 0.01759164 0.0065527037 0.032418396 -0.018738965 0.01580216 0.004800983 -0.034241922
-0.029553678 -0.027658021 0.032588195 0.0033489056 0.03427444 0.005597826 0.023866475 0.026415043
-0.020877983 -0.034096703 -0.022557572 -0.032568287 -0.026465207 -0.0006932579 0.029509906 0.016351674
0.01453739 0.016908344 0.016760346 -0.020600205 0.010803826 0.016985603 0.0039950125 0.02873518
-0.027863111 -0.030603351 -0.004900379 0.031611536 -0.023539796 0.025637344 -0.032322906 0.024150513
-0.01655201 -0.03396519 -0.017829193 -0.022228718 -0.0063128565 -0.021400299 0.022089541 0.021862254
-0.026155189 0.033798102 -0.00025128573 0.027090583 -0.03353771 0.03567699 -0.032751963 -0.01655572
0.006825585 0.023170117 0.030654822 0.010422945 -0.014595866 0.016443107 0.024889998 0.023699697
0.0019450784 0.01335071 -0.0155176185 -0.0055539533 -0.009713318 -0.03143194 -0.029520947 0.03405915
0.01152496 -0.0036003478 -0.010099165 0.009117253 -0.013744598 -0.015887564 0.0076981224 0.034381192
-0.02782256 -0.034886237 -0.0013642125 -0.011795428 -0.029588701 -0.02635563 0.016053453 -0.025667315
0.0143849775 -0.0053293966 0.014272854 -0.021010693 0.024916932 -0.030356571 0.03151511 0.029504444
0.00095590204 0.00035930425 0.019964386 0.017946623 -0.0144800935 0.020559214 -0.029014908 0.011131652
-0.020932326 0.03550707 -0.0047177114 0.029759351 -0.011478096 0.014505852 -0.021634363 0.0109876655
0.005813446 0.029065106 0.0296929 0.00036326796 -0.00020509958 -0.02762654 0.007608883 0.0012253448
-0.014582766 -0.0023637824 0.029119294 -0.009026077 0.033665393 -0.00010602549 -0.005052302 -0.0152854975
0.021697212 0.01359614 -0.028579548 0.005791772 -0.0025964193 0.017993245 -0.00921002 -0.022597864
0.028775577 -0.019207364 0.018097162 0.03101543 0.022398375 0.019344177 -0.027403671 0.026140355
00000000: 284d fa3b c0ac 57ba 269a eb3c 5c97 03bd
00000010: e04a 733b 0064 613c 513b 103d bc13 2b3c
00000020: 6a70 76bc 4041 bbbc 7100 f4bc 6614 bd3c
00000030: 98f8 463c 5e9b debc e65f c43c 689d cbbc
00000040: 082f 123c ca04 02bd a207 893c f05a c93c
00000050: f187 ffbc 80b5 7a3b 27e4 80bc f0e2 4ebb
00000060: 3a61 0abd 809b a939 657e b0bc dcb6 86bc
00000070: 43b9 8ebc 88f3 d6bb 6a4b 44bc 2072 743c
00000080: 3c75 0ebd 7c69 b9bc e05e 28bc 00f3 bfba
00000090: 5e02 0ebd 8edd 67bc a0a7 873c 8414 373c
000000a0: 90da e23b d5a8 08bd 4622 60bc b464 79bc
000000b0: 948c 4a3c 006e dbb8 f0c1 823b ecdf c43c
000000c0: 4eaa d3bc d724 86bc 3093 b4bc 80e8 773b
000000d0: 2cc1 a1bc 869c f93c 8790 0e3d d871 66bc
000000e0: b6e9 fa3c 581c 903c 10b8 d63b 27c9 043d
000000f0: 7582 99bc 8873 813c 9051 9d3b 4241 0cbd
00000100: 8e1a f2bc 1393 e2bc 337b 053d 5079 5b3b
00000110: 5b63 0c3d f86d b73b a083 c33c 5c64 d83c
00000120: 4e08 abbc fca8 0bbd a8ca b8bc 5366 05bd
00000130: 90cd d8bc c0bb 35ba c2be f13c f2f3 853c
00000140: 3c2e 6e3c 5e83 8a3c fe4c 893c c3c1 a8bc
00000150: 8802 313c 6425 8b3c 98e8 823b 0a66 eb3c
00000160: 2e41 e4bc e1b3 fabc 5c93 a0bb 197b 013d
00000170: 88d6 c0bc 6805 d23c 0665 04bd 4cd7 c53c
00000180: 1598 87bc 151f 0bbd 870e 92bc 0019 b6bc
00000190: 14dc cebb ae4f afbc 20f5 b43c 7818 b33c
000001a0: 6843 d6bc e16f 0a3d 00bf 83b9 12ed dd3c
000001b0: d65e 09bd 0922 123d ec26 06bd dc9f 87bc
000001c0: 28a9 df3b 42cf bd3c d21f fb3c 00c5 2a3c
000001d0: 8023 6fbc b2b3 863c 1ce6 cb3c de25 c23c
000001e0: 00f2 fe3a f0bc 5a3c 9c3d 7ebc f0fd b5bb
000001f0: 9c24 1fbc c7be 00bd ead5 f1bc 9b81 0b3d
00000200: 30d3 3c3c d0f3 6bbb f876 25bc 8860 153c
00000210: 0631 61bc a326 82bc 8840 fc3b 4bd3 0c3d
00000220: 23ec e3bc dfe4 0ebd 60cf b2ba 9c41 41bc
00000230: 0164 f2bc c3e7 d7bc 8882 833c 4344 d2bc
00000240: f8ae 6b3c 38a2 aebb b0d8 693c 9e1e acbc
00000250: 981e cc3c 58ae f8bc fd15 013d 4eb3 f13c
00000260: 8095 7a3a 0061 bc39 5a8c a33c cc04 933c
00000270: ea3d 6dbc cc6b a83c acb0 edbc 8861 363c
00000280: 457a abbc dd6f 113d 0897 9abb e2c9 f33c
00000290: a00e 3cbc f4a9 6d3c 8c3a b1bc 9c05 343c
000002a0: b87e be3b f219 ee3c 863e f33c 0075 be39
000002b0: 0010 57b9 0e51 e2bc f053 f93b c09b a03a
000002c0: 8eec 6ebc b0e9 1abb 968b ee3c 1ce2 13bc
000002d0: b9e4 093d 005a deb8 c88d a5bb 0670 7abc
000002e0: 5abe b13c 58c2 5e3c a81f eabc e8c8 bd3b
000002f0: b028 2abb 9266 933c a0e5 16bc 281f b9bc
00000300: c2ba eb3c c358 9dbc 8040 943c 1214 fe3c
00000310: cc7c b73c ae77 9e3c aa7d e0bc 4c24 d63c

fc2.weight f4 [150, 200]
0.026786253 0.02501724 0.041904874 0.05546815 -0.01464517 -0.017849341 0.06821173 -0.035794433
-0.014072016 0.03638675 -0.045079976 -0.040186644 -0.031017847 -0.024894904 0.06796882 -0.026512045
-0.040906526 0.046595372 -0.018192057 -0.062530525 0.060647227 -0.03361202 -0.0131329 -0.025074847
0.03037034 -0.04452593 0.029873528 0.037319623 -0.05563338 0.04140172 -0.05785101 -0.03312477
-0.027278833 0.057590626 0.023279607 -0.04249215 -0.05692223 0.013450578 0.028249785 -0.017968398
0.017104499 0.068858795 -0.0032083094 -0.017356105 0.03631936 0.026413597 -0.030522607 0.008867316
-0.0036643818 -0.04246453 -0.009089228 -0.013797801 -0.02650053 -0.042196237 0.05324682 -0.04016129
0.028668508 -0.061935835 -0.018531684 -0.008867402 -0.050385945 -0.0022320822 0.066283844 0.02726131
0.048124984 -0.0013762265 0.065066285 -0.05894677 -0.043305922 0.036508746 -0.031217743 -0.061008096
0.0026969612 -0.016233768 0.044134796 0.00842347 -0.0073491484 -0.036209125 -0.037253097 0.02087827
-0.0035866573 -0.02976865 0.037096485 -0.011607379 -0.06666566 0.03496369 -0.018037494 0.05200866
-0.013000447 0.03804475 -0.06801108 -0.015331421 0.06305499 -0.043676917 -0.060130592 0.025119543
-0.0056171417 0.0022236928 0.028167896 0.014406636 -0.010063481 0.056847565 -0.045387488 -0.062262606
-0.00650125 -0.0014985502 -0.06237104 0.011659399 -0.06568128 0.049596146 0.011524312 0.04621032
-0.014683574 0.006998442 -0.010677982 -0.032904577 -0.021140642 0.06824251 0.0413014 -0.037569594
0.027492374 0.026580878 0.06763335 0.062989525 -0.06844109 -0.061405465 -0.041605018 0.05581758
-0.035921946 0.048268087 0.06444832 0.002979435 -0.014057323 -0.0185838 0.030457191 -0.014062624
0.020588495 -0.058026306 0.0463693 0.027298436 0.03309284 -0.06283438 -0.035267044 0.044625245
0.056617044 -0.03663738 -0.024829999 0.04109451 -0.025573384 0.05887819 -0.015813895 -0.005163066
-0.016831513 -0.046420902 0.006640725 -0.04429973 0.041001156 3.6001205e-05 -0.049699686 -0.036134567
-0.031484935 -0.014669441 0.0024730563 0.028467856 0.040907003 -0.05136857 0.06543896 -0.038396563
0.04490444 0.049042992 -0.06577294 0.010400943 -0.05535156 0.07011502 0.00022281706 -0.008129157
-0.052138418 -0.06988927 -0.025079131 0.02528315 0.06125433 0.026339054 0.012622394 0.008322179
-0.069252335 -0.06180443 -0.047099993 0.03297919 -0.038002018 0.06984698 -0.054184422 -0.03447195
-0.02326437 0.054052062 -0.03814972 -0.029531918 0.030362532 0.03970086 0.031074457 0.045171276
0.06935268 -0.021486592 0.010581389 0.059919037 0.00419797 -0.031756952 -0.048333183 0.037970275
0.040545322 0.0333853 -0.05255585 0.029976524 -0.05029935 0.057310008 -0.028010022 -0.021510363
-0.009706818 0.01450976 -0.025342908 0.011726715 0.018764913 0.028336808 -0.06243054 0.05334633
0.061903454 0.036140993 0.0363978 0.009940729 -0.005455129 -0.054953862 0.06379055 -0.040340614
0.016598254 0.03418301 -0.01354304 0.020757616 -0.02403967 0.06989523 0.012312174 -0.007344082
-0.057681985 -0.037957158 -0.037919775 0.061181597 -0.014613975 0.05869343 -0.016713385 -0.029301148
-0.025846783 -0.049210325 -0.0099953115 -0.008745287 0.028181128 -0.06513606 0.017641053 -0.008680716
00000000: d86e db3c f4f0 cc3c 72a4 2b3d 9232 633d
00000010: 4cf2 6fbc c838 92bc 97b2 8b3d 2f9d 12bd
00000020: 508e 66bc 460a 153d c8a5 38bd c09a 24bd
00000030: 2419 febc 66f0 cbbc 3d33 8b3d ca2f d9bc
00000040: 9a8d 27bd cada 3e3d 8207 95bc 0110 80bd
00000050: 3a69 783d c2ac 09bd 602b 57bc c469 cdbc
00000060: 38cb f83c d260 36bd 54b9 f43c 76dc 183d
00000070: d4df 63bd da94 293d 2ef5 6cbd d7ad 07bd
00000080: dc77 dfbc 26e4 6b3d e0b4 be3c 400c 2ebd
00000090: 4927 69bd d05f 5c3c 186c e73c 7632 93bc
000000a0: bc1e 8c3c d705 8d3d 8042 52bb 642e 8ebc
000000b0: 9cc3 143d 5461 d83c 8c0a fabc 3848 113c
000000c0: 2026 70bb 49ef 2dbd fcea 14bc 2c10 62bc
000000d0: a417 d9bc f6d5 2cbd 5619 5a3d 2a80 24bd
000000e0: 38da ea3c 6eb0 7dbd c2cf 97bc 9448 11bc
000000f0: 7e61 4ebd 2048 12bb d3bf 873d 1c53 df3c
00000100: b41e 453d 8062 b4ba 7941 853d 2b72 71bd
00000110: 8d61 31bd 328a 153d 5abc ffbc a0e3 79bd
00000120: 80bf 303b aefc 84bc b0c6 343d 9802 0a3c
00000130: 20d1 f0bb 0550 14bd b496 18bd e808 ab3c
00000140: 200e 6bbb 62dd f3bc 7cf2 173d e02c 3ebc
00000150: 0188 88bd 1636 0f3d 5ec3 93bc 0807 553d
00000160: d4ff 54bc d0d4 1b3d 6549 8bbd a430 7bbc
00000170: f922 813d 91e6 32bd 7f4b 76bd 80c7 cd3c
00000180: 0010 b8bb 60bb 113b 5cc0 e63c d009 6c3c
00000190: 4ce1 24bc fed8 683d 3be8 39bd 1307 7fbd
000001a0: 7008 d5bb 006b c4ba c778 7fbd 1007 3f3c
000001b0: e883 86bd 5425 4b3d 78d0 3c3c 0847 3d3d
000001c0: 6093 70bc 3053 e53b b4f2 2ebc f3c6 06bd
000001d0: 242f adbc bbc2 8b3d a82b 293d 93e2 19bd
000001e0: b037 e13c 24c0 d93c 5b83 8a3d a700 813d
000001f0: d82a 8cbd 4c84 7bbd 066a 2abd faa0 643d
00000200: e422 13bd c2b4 453d 7bfd 833d a042 433b
00000210: b050 66bc 0e3d 98bc 5c81 f93c ec66 66bc
00000220: 34a9 a83c feac 6dbd bced 3d3d f8a0 df3c
00000230: 5c8c 073d 50af 80bd 2d74 10bd f6c8 363d
00000240: 46e7 673d 1411 16bd 4868 cbbc b852 283d
00000250: 467f d1bc 422a 713d 248c 81bc f02e a9bb
00000260: 3ee2 89bc d823 3ebd 709a d93b a273 35bd
00000270: d4f0 273d 0000 1738 e691 4bbd d701 14bd
00000280: 59f6 00bd 1858 70bc 0013 223b 6c35 e93c
00000290: 1a8e 273d da67 52bd dd04 863d b745 1dbd
000002a0: b8ed 373d 4ee1 483d f7b3 86bd b868 2a3c
000002b0: 51b8 62bd 7798 8f3d 00a4 6939 2830 05bc
000002c0: 188f 55bd 1b22 8fbd c072 cdbc 9c1e cf3c
000002d0: d2e5 7a3d 00c5 d73c 28ce 4e3c c059 083c
000002e0: 2bd4 8dbd a426 7dbd eceb 40bd 3015 073d
000002f0: 01a8 1bbd ef0b 8f3d 7cf0 5dbd 7632 0dbd
00000300: ec94 bebc b265 5d3d e142 1cbd ecec f1bc
00000310: d8ba f83c 5e9d 223d dc8f fe3c 8405 393d
00000320: c708 8e3d a604 b0bc 905d 2d3c aa6d 753d
00000330: 208f 893b 9413 02bd 04f9 45bd b886 1b3d
00000340: da12 263d 06bf 083d ce44 57bd 5491 f53c
00000350: b106 4ebd e6bd 6a3d 4675 e5bc 8036 b0bc
00000360: 5809 1fbc 58ba 6d3c ee9b cfbc 6821 403c
00000370: e0b8 993c 9822 e83c 2ab7 7fbd ae81 5a3d
00000380: 7a8e 7d3d 9408 143d dc15 153d 70de 223c
00000390: f0c0 b2bb 4d17 61bd 9fa4 823d 333c 25bd
000003a0: 10f9 873c 7c03 0c3d a0e3 5dbc e00b aa3c
000003b0: d8ee c4bc 3b25 8f3d 00b9 493c a0a6 f0bb
000003c0: f243 6cbd f778 1bbd c451 1bbd 8e99 7a3d
000003d0: 746f 6fbc 8668 703d 82ea 88bc f608 f0bc
000003e0: a2bc d3bc c490 49bd 60c3 23bc 6448 0fbc
000003f0: 1cdc e63c 0e66 85bd f883 903c 9039 0ebc

fc2.bias f4 [150]
-0.0357445 -0.05926008 -0.04686132 -0.0072056428 -0.05285597 0.011156812 0.0036467612 -0.054962847
-0.04052549 -0.007298149 0.027377255 0.059147768 0.04527378 -0.03258759 -0.011855654 -0.06316601
0.06823545 -0.052977614 -0.051154356 0.044212334 -0.06859999 0.061373614 -0.06453584 0.0046968013
0.012703516 0.027409293 0.063480504 -0.016717296 -0.042834956 0.030911647 -0.016767904 -0.023137458
-0.05136446 -0.0343205 0.06380027 -0.05119599 0.06329266 -0.061011165 0.059003927 -0.043054543
0.06440241 -0.03336998 0.03729158 0.004925497 0.045233965 -0.0495116 0.02080194 -0.06885934
-0.004257947 -0.04540267 0.054507576 -0.039181557 0.018234245 0.06425109 0.06858254 -0.037989795
0.028624624 0.06491383 -0.009262893 -0.027664807 0.030385517 0.02058442 0.018342957 0.049975276
-0.0060836077 -0.06487905 0.03047631 0.00022434443 -0.04432962 0.027562335 0.04891643 -0.049441807
0.02528011 0.017373055 -0.01716552 0.04612156 0.03141357 -0.017319035 0.015363678 0.018187925
0.019515902 0.0651932 -0.04936105 0.026945837 -0.046867188 -0.06573897 -0.06721871 -0.060191587
-0.023247428 0.0024639368 -0.06944783 0.034427367 -0.05893846 0.029814944 0.029664718 0.044904396
-0.06360021 0.070219494 -0.059720933 0.011973694 -0.037532233 0.063607894 -0.036080968 -0.05085938
-0.019403119 -0.03082661 0.008407325 -0.022769641 -0.05631789 -0.027600996 -0.05937178 0.06439712
0.06688475 -0.06579464 -0.041658428 -0.0467731 -0.013667986 -0.03746034 0.03715656 0.0032867119
0.025210313 -0.046289466 -0.051631592 -0.06591584 -0.06982463 0.057811625 0.008156791 0.06975954
-0.028910406 -0.016622119 0.008350857 0.017628781 0.013016127 -2.3342669e-05 0.06527499 -0.026835222
0.049250737 0.037658505 0.04157824 0.031551935 0.008472547 -0.013458937 -0.025304142 -0.039085995
0.03818711 0.031220838 -0.06521381 -0.07064792 -0.058293037 -0.0016139224
00000000: d368 12bd b3ba 72bd a8f1 3fbd 501d ecbb
00000010: 807f 58bd 10cb 363c 80fe 6e3b b920 61bd
00000020: 0efe 25bd 5025 efbb 4446 e03c ee44 723d
00000030: 0071 393d 917a 05bd 383e 42bc 2e5d 81bd
00000040: 07bf 8b3d 0eff 58bd 3b87 51bd fe17 353d
00000050: 277e 8cbd e662 7b3d 5e2b 84bd a0e7 993b
00000060: 6822 503c 7489 e03c 1102 823d b6f2 88bc
00000070: b573 2fbd 6c3a fd3c d85c 89bc c48a bdbc
00000080: 8a63 52bd a793 0cbd b7a9 823d e3b2 51bd
00000090: 959f 813d d8e6 79bd 1aae 713d f659 30bd
000000a0: 69e5 833d f6ae 08bd 0ebf 183d 1066 a13b
000000b0: 4047 393d adcc 4abd d468 aa3c 2006 8dbd
000000c0: 4086 8bbb 26f8 39bd 5643 5f3d d77c 20bd
000000d0: fc5f 953c 1396 833d 0175 8c3d 309b 1bbd
000000e0: 307e ea3c 8bf1 843d 64c3 17bc 4ea1 e2bc
000000f0: 0ceb f83c a8a0 a83c f843 963c e0b2 4c3d
00000100: 0059 c7bb 4fdf 84bd 74a9 f93c 003e 6b39
00000110: fa92 35bd 68ca e13c 985c 483d 7e83 4abd
00000120: 3c18 cf3c f051 8e3c b49e 8cbc f6e9 3c3d
00000130: 84ab 003d a6e0 8dbc f0b7 7b3c d8fe 943c
00000140: d0df 9f3c 0384 853d d02e 4abd 84bd dc3c
00000150: cff7 3fbd 27a2 86bd f7a9 89bd 748b 76bd
00000160: 6471 bebc 007a 213b aa3a 8ebd b603 0d3d
00000170: 7469 71bd 783e f43c 6c03 f33c aced 373d
00000180: d440 82bd 3dcf 8f3d f09d 74bd 502d 443c
00000190: 66bb 19bd db44 823d a3c9 13bd ed51 50bd
000001a0: 4af3 9ebc 1688 fcbc e0be 093c 6687 babc
000001b0: 96ad 66bd 7c1b e2bc d32f 73bd a3e2 833d
000001c0: dffa 883d 57bf 86bd 07a2 2abd 2695 3fbd
000001d0: b0ef 5fbc 0370 19bd 7a31 183d e065 573b
000001e0: dc85 ce3c 069a 3dbd a67b 53bd e2fe 86bd
000001f0: 3700 8fbd e2cb 6c3d 10a4 053c 17de 8e3d
00000200: 84d5 ecbc 1c2b 88bc 08d2 083c 3c6a 903c
00000210: 9841 553c 00d0 c3b7 e5ae 853d 8ad5 dbbc
00000220: 24bb 493d ce3f 1a3d f24d 2a3d 9a3c 013d
00000230: 70d0 0a3c e082 5cbc a24a cfbc a318 20bd
00000240: 166a 1c3d d8c2 ff3c d18e 85bd dbaf 90bd
00000250: aec4 6ebd 408a d3ba

fc3.weight f4 [100, 150]
0.06631844 0.038855553 -0.054599848 0.013834976 -0.040908303 0.078135714 0.024439849 -0.041426957
0.020782262 -0.01738529 0.07167934 0.06751253 0.063048586 -0.045860354 0.059009403 -0.0016808212
0.07503429 0.062308013 -0.072819814 -0.011081211 -0.080044694 0.040505163 0.029201984 -0.0009677708
0.075953096 -0.0151197165 -0.07859973 -0.070540175 0.04699287 0.062836885 -0.069927506 0.033258133
0.0014239401 0.06962323 0.034092814 -0.05860944 0.033903897 0.023554929 0.06747542 0.0068375394
-0.06024099 -0.008226529 0.024970189 -0.050615966 0.0813753 -0.06979716 -0.024228502 -0.005089991
-0.030662209 -0.009195879 0.036508217 -0.077294916 0.063167706 -0.008386873 0.0043236986 -0.025549516
-0.00871136 0.08112833 -0.07911376 0.012175895 0.015232556 -0.06979148 -0.07009982 -0.047479514
0.062424228 0.07046312 0.07016477 -0.026543997 0.0046570003 0.07375944 -0.008438118 0.06399655
-0.006381735 0.029419653 -0.0365493 -0.033695582 -0.03869135 0.05411084 0.030290172 0.06031519
0.07039979 -0.010339223 -0.030601628 0.06667027 -0.04058208 -0.07123557 0.005517438 0.0507053
-0.056778833 0.023756117 0.025062263 -0.05272822 0.0057195425 -0.07172116 0.07333045 -0.07109144
-0.046300277 -0.044617254 -0.009350665 -0.050180856 0.015975595 -0.06565804 -0.01829701 0.07275911
0.071091905 0.058346704 -0.07120762 0.0013891011 0.04462479 -0.054617748 0.049425423 -0.0014803782
-0.05676884 -0.013195127 0.03456012 -0.004122153 0.07957043 0.02503533 -0.026724689 -0.054527294
-0.07167193 0.07100181 -0.07974004 0.01973766 -0.013620555 -0.026525494 -0.04336266 -0.017015263
0.077490956 -0.035406258 -0.0712709 0.0069342703 -0.03082284 0.051987797 -0.059678588 -0.0139647275
0.002843447 0.041471787 -0.081327565 -0.00048281252 0.04558137 -0.034471598 0.007427238 -0.049321543
0.054293275 0.027130306 -0.038365144 -0.046309464 0.0033343807 -0.011547834 0.010442235 -0.012860194
0.036815986 -0.007039219 -0.0204218 -0.009432107 0.016760461 0.061829552 -0.030139662 -0.027358383
-0.027116615 -0.08044983 -0.02935291 -0.034734704 -0.033722583 0.0746925 -0.079541475 -0.014363594
-0.009191573 -0.028130338 -0.037456393 -0.05554807 -0.08045977 -0.015807606 0.02911976 0.0005714372
0.062192485 -0.0611502 0.0029926598 0.043709174 -0.036335193 0.014562927 0.060754836 -0.03714294
0.06682946 0.010517657 0.005386211 -0.0013254136 -0.008695342 -0.04435061 0.014583275 0.072044626
-0.0035609081 0.02501867 -0.075320005 0.04973802 -0.07420847 -0.053116895 0.045981467 0.0154258385
0.03881985 0.029205255 -0.058679856 -0.022979628 -0.015836425 -0.0635045 -0.011156544 0.0096384585
-0.038552772 0.052228108 -0.028306026 0.031607486 -0.02222526 0.016292728 -0.028425884 -0.060270514
0.08120686 0.042930484 0.045954913 0.018082805 0.07731821 -0.057664074 -0.030446138 -0.054732084
-0.062813655 -0.061077822 -0.07888266 0.06942785 -0.061212063 -0.055456717 -0.040217992 -0.012179896
0.050399065 -0.057914127 -0.07449652 0.06541669 -0.058032427 0.068268865 0.0630973 -0.077984
-0.051676296 -0.026747689 0.07979886 -0.0048139617 -0.023927622 0.016444705 0.07294254 0.036838487
-0.07151176 -0.028701026 0.0645667 0.0104680285 0.035574675 -0.013317928 0.072423264 -0.03112593
00000000: f6d1 873d 0027 1f3d 17a4 5fbd 18ac 623c
00000010: 778f 27bd 9e05 a03d 1436 c83c 50af 29bd
00000020: 903f aa3c 986b 8ebc 9ecc 923d 0244 8a3d
00000030: 9e1f 813d 11d8 3bbd d8b3 713d 004f dcba
00000040: 94ab 993d b036 7f3d 8e22 95bd f88d 35bc
00000050: 79ee a3bd bee8 253d 0039 ef3c 00b2 7dba
00000060: 4c8d 9b3d b0b8 77bc e5f8 a0bd 5e77 90bd
00000070: 987b 403d a0b0 803d 2736 8fbd ae39 083d
00000080: 80a3 ba3a a096 8e3d e8a4 0b3d 7410 70bd
00000090: d0de 0a3d 44f6 c03c 8e30 8a3d 700d e03b
000000a0: 42bf 76bd 90c8 06bc 488e cc3c b052 4fbd
000000b0: 18a8 a63d d0f1 8ebd da7a c6bc f0c9 a6bb
000000c0: 502f fbbc 50aa 16bc a489 153d cc4c 9ebd
000000d0: 125e 813d 1869 09bc d0ad 8d3b 384d d1bc
000000e0: 18ba 0ebc 9c26 a63d 6506 a2bd 687d 473c
000000f0: f891 793c d6ee 8ebd 7f90 8fbd e179 42bd
00000100: 8cb0 7f3d f84e 903d 8cb2 8f3d cc72 d9bc
00000110: c099 983b 300f 973d 0840 0abc a010 833d
00000120: e01d d1bb 7c01 f13c b8b4 15bd 6104 0abd
00000130: d27a 1ebd 54a3 5d3d 1823 f83c 100d 773d
00000140: c42d 903d d865 29bc 44b0 fabc 6c8a 883d
00000150: 6539 26bd f4e3 91bd a0cb b43b 5cb0 4f3d
00000160: ec90 68bd 309c c23c 604f cd3c 8cf9 57bd
00000170: 006b bb3b 8be2 92bd 462e 963d 6498 91bd
00000180: 5ca5 3dbd 95c0 36bd 8833 19bc 718a 4dbd
00000190: 40df 823c b977 86bd 9ce3 95bc ba02 953d
000001a0: a298 913d f4fc 6e3d 4dd5 91bd 8012 b63a
000001b0: 7cc8 363d dcb6 5fbd 5072 4a3d 4009 c2ba
000001c0: 7186 68bd 6030 58bc ea8e 0d3d 2013 87bb
000001d0: d2f5 a23d e416 cd3c bced dabc 0358 5fbd
000001e0: bcc8 92bd 6669 913d bf4e a3bd e0b0 a13c
000001f0: c028 5fbc fe4b d9bc 0b9d 31bd 9863 8bbc
00000200: 94b3 9e3d 2706 11bd 7af6 91bd e038 e33b
00000210: 2e80 fcbc 28f1 543d 8971 74bd 50cc 64bc
00000220: 2059 3a3b 52de 293d 118f a6bd 0022 fdb9
00000230: 88b3 3a3d 1732 0dbd 3060 f33b 6305 4abd
00000240: a062 5e3d 6040 de3c c524 1dbd feae 3dbd
00000250: a085 5a3b 2033 3dbc e815 2b3c 90b3 52bc
00000260: 5ccc 163d 40a9 e6bb 9e4b a7bc 2089 1abc
00000270: 3c4d 893c fc40 7d3d 74e7 f6bc b01e e0bc
00000280: aa23 debc e1c2 a4bd 8475 f0bc fa45 0ebd
00000290: b120 0abd 62f8 983d a4e6 a2bd 4855 6bbc
000002a0: 4098 16bc 9871 e6bc e06b 19bd 6086 63bd
000002b0: 18c8 a4bd f47e 81bc 908c ee3c 80cc 153a
000002c0: 8cbd 7e3d a278 7abd 8020 443b 6408 333d
000002d0: 36d4 14bd 5899 6e3c 10da 783d 3223 18bd
000002e0: e2dd 883d 4052 2c3c d07e b03b 80b9 adba
000002f0: e876 0ebc fca8 35bd b0ee 6e3c 228c 933d
00000300: 205e 69bb f4f3 cc3c 6041 9abd 18ba 4b3d
00000310: 9cfa 97bd 1a91 59bd 1057 3c3d a8bc 7c3c
00000320: 9001 1f3d dc3f ef3c 4a5a 70bd c63f bcbc
00000330: 64bb 81bc a60e 82bd f0c9 36bc a0ea 1d3c
00000340: 83e9 1dbd 24ed 553d 0ae2 e7bc da76 013d
00000350: c011 b6bc 5478 853c 66dd e8bc 37de 76bd
00000360: c84f a63d e0d7 2f3d 383b 3c3d 6422 943c
00000370: 0259 9e3d 2a31 6cbd 2e6a f9bc c02e 60bd
00000380: 72a4 80bd bd2c 7abd 3b8d a1bd 3030 8e3d
00000390: 80b9 7abd 9526 63bd 9fbb 24bd 308e 47bc
000003a0: 406f 4e3d 5d37 6dbd a291 98bd 30f9 853d
000003b0: 69b3 6dbd 8cd0 8b3d 2839 813d 13b6 9fbd
000003c0: 86aa 53bd f81d dbbc 966d a33d 70be 9dbb
000003d0: dc03 c4bc 0cb7 863c e662 953d f4e3 163d
000003e0: c274 92bd 6a1e ebbc 8c3b 843d 1882 2b3c
000003f0: c0b6 113d 7033 5abc a652 943d cefb febc

fc3.bias f4 [100]
-0.075717606 -0.039340165 0.07266624 0.02240017 0.036184028 -0.021850854 0.06074448 0.031384386
-0.026318282 0.050091624 0.053350687 -0.069687635 -0.0029077828 -0.061370887 0.046010956 -0.0061602592
0.033008814 0.0689331 0.044777066 -0.04612418 0.07935998 -0.027547114 0.057529822 0.0049633905
0.065409675 -0.020826094 0.034089155 0.032368273 -0.03184548 0.058555856 -0.019289669 0.048088297
-0.052506037 -0.0040364712 0.036919817 0.038971633 0.0019882917 -0.0606696 0.07396121 -0.018215604
0.03322798 -0.051021546 0.058429703 0.07312511 -0.05347635 -0.0105339885 -0.022996478 -0.024927322
-0.033430524 0.059147924 -0.080535315 0.0681798 -0.06536484 0.075331375 -0.07432521 -0.03935862
0.0675571 -0.051866397 -0.036334105 -0.033008005 0.015935063 -0.024961155 -0.040593177 -0.038673263
-0.055641476 0.02289167 0.005659364 -0.07926097 0.080693364 0.05906929 -0.02050066 -0.06318521
0.028563857 -0.00097465515 0.024199955 -0.007352747 0.009757511 0.0028009638 -0.067754425 0.059335366
-0.079496935 -0.0018054396 0.07349649 0.039118826 0.075837776 0.019749276 0.080002025 -0.022004943
-0.05718174 0.07604264 0.06524797 -0.03924006 0.03409508 -0.03375767 -0.05249854 0.035373203
-0.044860072 0.058130845 -0.021435581 0.014074922
00000000: d511 9bbd 2723 21bd 0ad2 943d 9080 b73c
00000010: b435 143d 9000 b3bc 34cf 783d ea8c 003d
00000020: 7099 d7bc e02c 4d3d 4086 5a3d 64b8 8ebd
00000030: 8090 3ebb 0a60 7bbd fc75 3c3d 00dc c9bb
00000040: 4034 073d cc2c 8d3d 2868 373d b5ec 3cbd
00000050: 7c87 a23d 7caa e1bc 64a4 6b3d f0a3 a23b
00000060: 82f5 853d 7c9b aabc 12a1 0b3d 9894 043d
00000070: 6870 02bd 44d8 6f3d 5e05 9ebc 3cf8 443d
00000080: 9210 57bd 6044 84bb 3c39 173d b8a0 1f3d
00000090: 004e 023b b080 78bd fa78 973d e438 95bc
000000a0: 101a 083d f8fb 50bd fc53 6f3d 9ec2 953d
000000b0: 040a 5bbd c096 2cbc 1c63 bcbc 6234 ccbc
000000c0: 72ee 08bd 1845 723d b3ef a4bd daa1 8b3d
000000d0: 00de 85bd 5647 9a3d d137 98bd 8136 21bd
000000e0: 605b 8a3d dc71 54bd 12d3 14bd 6733 07bd
000000f0: 408a 823c 567b ccbc 0845 26bd db67 1ebd
00000100: 51e8 63bd 5087 bb3c 3072 b93b 9353 a2bd
00000110: 9042 a53d a4f2 713d 00f1 a7bc 3f67 81bd
00000120: c0fe e93c 0080 7fba fc3e c63c 50ef f0bb
00000130: f8dd 1f3c 6090 373b d5c2 8abd a409 733d
00000140: 4acf a2bd 80a4 ecba 5485 963d 103b 203d
00000150: d650 9b3d 3cc9 a13c 1ad8 a33d b643 b4bc
00000160: 6637 6abd 3ebc 9b3d baa0 853d 2fba 20bd
00000170: 48a7 0b3d 7c45 0abd b608 57bd 7ee3 103d
00000180: 32bf 37bd 9c1a 6e3d ac99 afbc 809a 663c

fc4.weight f4 [80, 100]
-0.0056653842 -0.09347248 -0.024044432 -0.074394025 -0.04399512 0.054576315 -0.085250966 -0.0792925
-0.086787306 -0.041402187 0.08946187 0.038205154 0.05007378 -0.097763814 0.057099693 0.026869796
-0.06805369 0.04127293 -0.04363047 -0.038949143 -0.03394133 -0.019426897 0.07989944 -0.010621943
0.0060411096 -0.07264902 -0.061766267 0.04693169 -0.052975606 0.058864586 0.09484384 0.04435899
-0.044367623 0.018512234 -0.06734078 -0.01817622 0.097049914 -0.0016041026 0.045310266 -0.022713482
-0.0016584024 0.07701371 0.023007013 -0.0020870566 -0.05750009 0.037748583 -0.08088245 -0.02647245
-0.07193643 0.023927614 0.021008275 -0.092452966 0.046473645 -0.0770969 -0.027418911 0.021030977
-0.07887987 -0.010708988 -0.05953915 0.06294037 0.053832285 0.039007984 -0.0069742575 -0.049525857
-0.05041753 0.0112461 0.044962667 -0.071435705 0.029727079 -0.007877946 0.0010443181 -0.031878814
-0.038321625 -0.0048197135 -0.015325189 0.041064747 0.051095553 0.020111755 0.0708039 0.062368654
-0.0625208 -0.04661709 -0.07800472 0.058145933 -0.03726022 0.040117733 0.097136535 -0.010203227
-0.080137864 0.098326765 0.0979547 -0.03356649 -0.07900955 -0.036093734 0.03600753 -0.015087366
-0.077150024 0.035778828 -0.09057026 0.0878058 0.055168457 0.06872628 0.09935356 -0.077231154
0.02551148 -0.067442894 0.052057214 -0.034321204 -0.08526863 -0.031533405 0.025245138 0.030136533
0.081927545 0.09302557 0.011937298 -0.08901521 -0.031094536 0.042939074 0.081153594 0.07643642
-0.008814707 -0.018109366 -0.009855829 -0.06407283 0.059147842 0.06920118 -0.08019368 0.08518187
0.0064253807 0.019547068 0.051229067 0.023912191 -0.0024037957 -0.034693636 -0.07967825 -0.024777256
-0.08027512 -0.034834728 -0.030823432 0.016176924 0.0022386312 0.086159 0.052028127 0.04526306
-0.045331027 -0.0026182532 0.0018404275 0.018982314 0.07201616 0.050144486 0.010855451 0.067253225
0.03716176 0.059213884 0.02793724 -0.053210404 0.036680885 0.08005787 -0.07972143 0.05003982
0.08614897 0.018549182 -0.06850606 -0.033357225 -0.06905142 -0.09280038 0.073653795 -0.069078885
0.009623066 0.06379249 0.06372506 0.039378233 0.07657529 0.056535788 -0.044048976 -0.05531112
0.08976897 0.0012716278 0.09485977 0.033338167 -0.060152102 0.06714461 -0.019649662 0.061257787
-0.09529674 0.08060337 -0.07633375 -0.03051325 0.023476765 -0.067888476 0.056929894 0.09105783
-0.08439948 -0.05999705 -0.022984825 0.024780892 -0.06710109 -0.086428486 -0.040483486 0.0798227
-0.06174139 -0.0021775216 -0.029212989 0.09208412 0.033488728 -0.09366907 -0.028260574 -0.0065142065
-0.071963325 0.080941 0.022698559 -0.074735425 0.082043745 -0.05713723 0.07729112 -0.04950521
-0.080303825 0.020513378 -0.028225407 -0.00438042 0.09877182 0.02659566 0.02127774 0.021629393
-0.07104055 -0.07070191 0.08931666 0.038782723 -0.03534721 0.07874625 0.05920925 0.0537569
0.06414629 0.04832519 -0.0027304515 0.049637444 -0.08955624 -0.022356734 -0.052948773 0.058069028
0.02676081 0.0072880164 0.08523149 -0.01753807 -0.06511682 0.067496516 -0.04272784 -0.07820199
0.08214592 -0.06391935 0.073558174 0.05018852 0.004050806 0.037546955 0.047291048 0.013241909
00000000: b0a4 b9bb 806e bfbd d4f8 c4bc e55b 98bd
00000010: 3a34 34bd 6a8b 5f3d 0f98 aebd 1b64 a2bd
00000020: 8bbd b1bd 5795 29bd c937 b73d 027d 1c3d
00000030: 2a1a 4d3d 6538 c8bd 5ee1 693d 0c1e dc3c
00000040: bc5f 8bbd ce0d 293d ddb5 32bd 2389 1fbd
00000050: 1006 0bbd 2825 9fbc 51a2 a33d a807 2ebc
00000060: 80f4 c53b 02c9 94bd a0fe 7cbd 723b 403d
00000070: f3fc 58bd fe1b 713d 7d3d c23d c6b1 353d
00000080: d3ba 35bd f8a6 973c f6e9 89bd 4ce6 94bc
00000090: 1bc2 c63d c040 d2ba 4297 393d a011 babc
000000a0: c05e d9ba 5db9 9d3d 3479 bc3c 00c7 08bb
000000b0: 3785 6bbd 429e 1a3d b3a5 a5bd c0dc d8bc
000000c0: 6853 93bd d803 c43c 8c19 ac3c fb57 bdbd
000000d0: 265b 3e3d fbe4 9dbd a09d e0bc 2849 ac3c
000000e0: c58b a1bd c074 2fbc 53df 73bd e1e6 803d
000000f0: 3e7f 5c3d d6c6 1f3d 5088 e4bb a0db 4abd
00000100: 9d82 4ebd 9041 383c c62a 383d e24c 92bd
00000110: 3486 f33c 8012 01bc 80e1 883a 5c93 02bd
00000120: 23f7 1cbd b0ee 9dbb 8016 7bbc 8233 283d
00000130: 9249 513d 68c1 a43c a301 913d 4676 7f3d
00000140: e80a 80bd 90f1 3ebd f0c0 9fbd 6e2a 6e3d
00000150: 2c9e 18bd 7e52 243d 85ef c63d 702b 27bc
00000160: 521f a4bd 8b5f c93d 799c c83d 047d 09bd
00000170: c2cf a1bd 06d7 13bd a27c 133d 0031 77bc
00000180: d500 9ebd d28c 123d e77c b9bd 87d3 b33d
00000190: 52f8 613d 5dc0 8c3d e179 cb3d 5e2b 9ebd
000001a0: 74fd d03c 801f 8abd f239 553d 6494 0cbd
000001b0: 52a1 aebd 2c29 01bd e4ce ce3c e4e0 f63c
000001c0: a1c9 a73d 3184 be3d a894 433c 9b4d b6bd
000001d0: f8b9 febc e2e0 2f3d db33 a63d b38a 9c3d
000001e0: 906b 10bc 185a 94bc 587a 21bc 9e38 83bd
000001f0: 0245 723d 59b9 8d3d 963c a4bd d573 ae3d
00000200: 008c d23b 2c21 a03c 92d5 513d 80e3 c33c
00000210: 0089 1dbb ea1a 0ebd 5a2e a3bd acf9 cabc
00000220: 4867 a4bd dcae 0ebd 6c81 fcbc 7885 843c
00000230: 00b6 123b 2174 b03d 721b 553d c265 393d
00000240: 07ad 39bd 0097 2bbb 803a f13a cc80 9b3c
00000250: 357d 933d 4e64 4d3d 10db 313c 0fbc 893d
00000260: ee36 183d 428a 723d a4dc e43c 27f3 59bd
00000270: b23e 163d 61f5 a33d fd44 a3bd 8ef6 4c3d
00000280: df6e b03d 74f4 973c e84c 8cbd 96a1 08bd
00000290: d56a 8dbd 200e bebd cdd7 963d 3b79 8dbd
000002a0: 10aa 1d3c a3a5 823d 4982 823d 124b 213d
000002b0: 81d3 9c3d 1292 673d b36c 34bd ea8d 62bd
000002c0: cbd8 b73d c0ac a63a d745 c23d 9a8d 083d
000002d0: 0d62 76bd 1d83 893d 54f8 a0bc 72e9 7a3d
000002e0: f02a c3bd 6113 a53d de54 9cbd ecf6 f9bc
000002f0: 5852 c03c 1d09 8bbd 522f 693d 877c ba3d
00000300: a2d9 acbd 77bf 75bd ac4a bcbc 4c01 cb3c
00000310: 4c6c 89bd 6b01 b1bd 03d2 25bd 157a a33d
00000320: 8ae4 7cbd c0b4 0ebb 1450 efbc 9996 bc3d
00000330: 7a2b 093d 92d5 bfbd b882 e7bc 2075 d5bb
00000340: 8261 93bd 65c4 a53d 54f2 b93c e30e 99bd
00000350: 8d06 a83d ba08 6abd cf4a 9e3d fac5 4abd
00000360: 5576 a4bd ac0b a83c f838 e7bc a089 8fbb
00000370: e148 ca3d 24df d93c a84e ae3c 2030 b13c
00000380: b57d 91bd 2acc 90bd a7eb b63d a2da 1e3d
00000390: 3cc8 10bd b745 a13d 6685 723d 3230 5c3d
000003a0: 215f 833d a2f0 453d 60f1 32bb a250 4b3d
000003b0: 4369 b7bd 7825 b7bc d0e0 58bd cad9 6d3d
000003c0: 7c39 db3c 50d0 ee3b d98d ae3d 00ac 8fbc
000003d0: f85b 85bd 9d3b 8a3d 6303 2fbd 5d28 a0bd
000003e0: 1f3c a83d 26e8 82bd aba5 963d 7a92 4d3d
000003f0: a0bc 843b d6ca 193d 42b4 413d 98f4 583c

fc4.bias f4 [80]
-0.05883131 0.07456616 -0.087237276 0.09024792 -0.012841955 -0.019493535 -0.039897826 0.0707623
-0.006732568 -0.092131875 -0.05973169 -0.022003077 0.05411657 0.060129754 0.052569054 0.067247696
-0.0095815435 -0.09721749 0.013201788 -0.030855037 -0.074022785 -0.030610956 0.035824932 0.0124684125
0.09485138 0.07333005 0.026970066 -0.06012224 -0.09196361 -0.0841156 -0.09525823 -0.033066943
-0.09740613 -0.016658686 -0.09946598 0.06847938 -0.022502244 -0.05559789 -0.03851167 -0.03569354
-0.012366332 -0.024178073 0.025635712 -0.005468987 0.031789012 0.063453026 0.0901311 0.033283107
0.03588683 0.043931253 -0.056218278 -0.032252178 -0.09678202 0.073670514 -0.019614898 -0.060174286
-0.09311575 -0.0636152 -0.023506798 0.03163881 -0.038826834 -0.09154206 0.09377196 -0.079686366
0.035247378 0.04085823 0.07954676 0.084668584 0.015654422 0.026041932 -0.042510845 0.056856625
-0.008010313 0.020022705 -0.03614962 0.021414995 -0.07837929 0.021252856 -0.03288219 0.05523125
00000000: 1af9 70bd 25b6 983d 75a9 b2bd e7d3 b83d
00000010: 1067 52bc e8b0 9fbc e76b 23bd d3eb 903d
00000020: e09c dcbb a3af bcbd 37a9 74bd cc3f b4bc
00000030: 56a9 5d3d 9e4a 763d a652 573d 29b9 893d
00000040: e8fb 1cbc f719 c7bd 504c 583c b4c3 fcbc
00000050: 4299 97bd d4c3 fabc 2abd 123d 5048 4c3c
00000060: 7141 c23d 112e 963d 54f0 dc3c bd42 76bd
00000070: 6b57 bcbd cd44 acbd bf16 c3bd 3471 07bd
00000080: dd7c c7bd cc77 88bc d2b4 cbbd eb3e 8c3d
00000090: a056 b8bc 9dba 63bd 6abe 1dbd 6433 12bd
000000a0: 289c 4abc 1811 c6bc fc01 d23c 3035 b3bb
000000b0: 3235 023d a9f3 813d a796 b83d de53 083d
000000c0: 12fe 123d 42f1 333d 2345 66bd dc1a 04bd
000000d0: a735 c6bd 91e0 963d 6caf a0bc 5079 76bd
000000e0: 78b3 bebd b048 82bd 5491 c0bc b297 013d
000000f0: e308 1fbd 677a bbbd 830b c03d 9b32 a3bd
00000100: 8e5f 103d f65a 273d 69e9 a23d b966 ad3d
00000110: b43d 803c e455 d53c da1f 2ebd 7ee2 683d
00000120: b03d 03bc a806 a43c a011 14bd 806e af3c
00000130: 5285 a0bd 781a ae3c 7aaf 06bd 2a3a 623d

outfc.weight f4 [10, 80]
-0.027276196 -0.03385622 -0.07891178 0.0699275 -0.045323968 0.00912559 0.009528831 0.077731594
0.046523616 0.08042863 0.013759777 -0.079109244 0.014460355 -0.033571787 0.024733916 0.028682068
-0.039450288 -0.07776874 0.04304041 -0.027650252 -0.030070707 -0.08237636 -0.104625896 0.07509014
-0.04600127 -0.05827391 0.043964207 -0.079460904 0.018795386 0.037863 0.10843131 0.085991964
-0.023836032 0.04810573 0.022674873 0.02035746 0.086986914 0.066744536 0.0022570863 0.06477049
0.08448923 -0.01703035 -0.09276793 -0.079341054 -0.03831348 0.09555322 0.08998394 0.094353646
-0.033514902 0.042186573 0.05686122 -0.0568989 -0.08064504 -0.07636757 0.010255486 -0.046704814
0.038466245 0.025293007 0.049267665 -0.10392827 0.06262864 0.068924844 -0.083026335 -0.013769105
-0.08490286 0.020961478 -0.07913761 -0.050896194 0.07075712 0.0023606047 0.07247038 0.05362463
0.09869006 0.035532624 -0.0824035 -0.055662222 0.016203463 -0.007256247 0.09141427 0.056555122
0.09250669 -0.110631384 0.10257828 0.1053676 0.058778644 0.06523739 0.03671147 0.053224698
-0.0888709 0.083430156 0.0022571906 0.009937376 -0.028722912 -0.03828883 -0.10547705 -0.08239356
-0.04769116 -0.09958415 0.10030143 -0.07756494 -0.023102388 -0.071853876 -0.07976808 0.04123597
0.06102243 -0.036935925 -0.017702013 0.0054945797 0.08516833 -0.09101407 -0.023624167 0.052045807
0.09757109 0.09314741 0.033735916 0.02528803 0.10312003 0.014702514 -0.021542922 -0.025690563
0.0040962026 -0.0707934 -0.065682575 -0.061357398 0.07208873 -0.09208418 -0.045568615 -0.061698154
-0.028665282 -0.07749277 0.081232235 -0.11141403 -0.009491205 -0.078034684 0.014990464 0.085730314
-0.045947663 0.08956313 -0.0679967 -0.04879634 -0.043127477 -0.0154719725 0.10036215 0.079070225
-0.030136175 -0.030765153 -0.0947431 0.0103122 0.09770957 -0.082647525 0.0642343 -0.11024223
0.06287789 -0.08148116 0.013622925 0.022602811 -0.050654132 0.0076253638 -0.055965688 0.083693445
0.023013204 -0.057122998 0.07100828 0.00236547 0.027054325 0.09160791 0.020443395 -0.053495754
-0.051953476 0.092988044 0.062697515 -0.060557038 0.07675214 0.062771365 -0.070655264 -0.043037124
0.082990915 -0.04896812 -0.08375718 -0.10276702 -0.010866985 -0.09736612 -0.051637497 -0.0069793984
0.053548694 -0.047118634 0.068473876 -0.095889345 -0.017977208 -0.057257436 0.09182912 -0.034339532
-0.028090142 -0.061286718 -0.061814412 0.0061986 -0.11036668 -0.02389568 0.06463109 0.081015676
0.101899296 -0.0772012 0.09092727 -0.0571397 0.10018416 -0.04837396 -0.07410327 0.021282375
0.050842777 -0.00963749 0.07589491 -0.039141186 0.0531691 -0.10165335 -0.06913819 0.049591556
-0.083317466 -0.029381901 -0.032395177 -0.050519943 0.054160997 0.07159999 0.052465186 -0.05164439
0.05729623 -0.08926552 0.00670211 -0.037109494 0.065911815 0.04290566 -0.09422241 -0.019081958
-0.0811791 0.032185033 0.025869459 -0.03520108 -0.03415849 -0.05795101 -0.09619379 -0.09071185
-0.07431455 -0.09585795 -0.045345522 -0.04395526 -0.0059041083 -0.019420058 -0.02662851 -0.096347086
0.005827166 0.034508854 -0.08023946 0.009532586 0.10023099 -0.05651812 0.069010854 0.030823529
00000000: 5472 dfbc d2ac 0abd 809c a1bd 2636 8f3d
00000010: a0a5 39bd 8083 153c d01e 1c3c be31 9f3d
00000020: 8c8f 3e3d c4b7 a43d b070 613c 0704 a2bd
00000030: 20eb 6c3c 9282 09bd c89e ca3c a8f6 ea3c
00000040: a096 21bd 3845 9fbd 244b 303d c882 e2bc
00000050: d856 f6bc f0b4 a8bd 1a46 d6bd dcc8 993d
00000060: d46b 3cbd a0b0 6ebd d013 343d 66bc a2bd
00000070: c8f8 993c 3c16 1b3d 3c11 de3d 8e1c b03d
00000080: c843 c3bc 840a 453d a8c0 b93c b0c4 a63c
00000090: 3226 b23d 5cb1 883d a0eb 133b 64a6 843d
000000a0: b008 ad3d 3c83 8bbc 1dfd bdbd 907d a2bd
000000b0: 98ee 1cbd 68b1 c33d 8049 b83d 7c3c c13d
000000c0: ec46 09bd d4cb 2c3d 50e7 683d d20e 69bd
000000d0: 3a29 a5bd 9a66 9cbd a006 283c 8c4d 3fbd
000000e0: c88e 1d3d 4833 cf3c e4cc 493d 58d8 d4bd
000000f0: 7243 803d 7828 8d3d b609 aabd d097 61bc
00000100: 8de1 adbd 68b7 ab3c e612 a2bd 8778 50bd
00000110: 1ce9 903d 60b4 1a3b 5a6b 943d 80a5 5b3d
00000120: 041e ca3d a88a 113d 2bc3 a8bd 12fe 63bd
00000130: 20bd 843c d0c5 edbb 6837 bb3d 58a6 673d
00000140: 2674 bd3d b592 e2bd 9014 d23d f8ca d73d
00000150: e0c1 703d 2e9b 853d c45e 163d 2402 5a3d
00000160: f201 b6bd 6edd aa3d 60ed 133b 60d0 223c
00000170: 504c ebbc c0d4 1cbd 5a04 d8bd f4bd a8bd
00000180: ce57 43bd c6f2 cbbd d66a cd3d 5eda 9ebd
00000190: 3841 bdbc 2028 93bd 725d a3bd 0ce7 283d
000001a0: a8f2 793d 204a 17bd d003 91bc e00b b43b
000001b0: bc6c ae3d 9665 babd 7887 c1bc fc2d 553d
000001c0: 5ad3 c73d 12c4 be3d ac2e 0a3d d828 cf3c
000001d0: 9830 d33d d0e2 703c c87a b0bc 0475 d2bc
000001e0: 7039 863b 21fc 90bd 9684 86bd e551 7bbd
000001f0: 42a3 933d a196 bcbd 28a6 3abd 34b7 7cbd
00000200: 74d3 eabc 88b4 9ebd 165d a63d 0a2d e4bd
00000210: 0081 1bbc a6d0 9fbd 909a 753c 6093 af3d
00000220: 9e33 3cbd e06c b73d db41 8bbd acde 47bd
00000230: 70a6 30bd 287e 7dbc ac8a cd3d 92ef a13d
00000240: 24e0 f6bc 3407 fcbc ac08 c2bd 80f4 283c
00000250: f41b c83d 1b43 a9bd 468d 833d aec6 e1bd
00000260: 20c6 803d 98df a6bd b032 5f3c 8829 b93c
00000270: b57a 4fbd 30de f93b 473c 65bd 7867 ab3d
00000280: 3086 bc3c cef9 69bd ca6c 913d 0006 1b3b
00000290: 08a1 dd3c ee9c bb3d e878 a73c 5d1e 5bbd
000002a0: 2bcd 54bd 8470 be3d 8e67 803d a80a 78bd
000002b0: 3a30 9d3d 468e 803d b5b3 90bd b247 30bd
000002c0: 24f7 a93d cc92 48bd e288 abbd 8477 d2bd
000002d0: 700b 32bc e367 c7bd d781 53bd 70b3 e4bb
000002e0: e055 5b3d 78ff 40bd 083c 8c3d a261 c4bd
000002f0: f044 93bc c686 6abd e810 bc3d 9ca7 0cbd
00000300: 4c1d e6bc c807 7bbd 1c31 7dbd a01d cb3b
00000310: ed07 e2bd e0c0 c3bc 4e5d 843d 8ceb a53d
00000320: 94b0 d03d aa1b 9ebd 1438 ba3d 510b 6abd
00000330: 5a2d cd3d c623 46bd 75c3 97bd 6058 ae3c
00000340: 8440 503d 90e6 1dbc ca6e 9b3d 8252 20bd
00000350: d8c7 593d a22f d0bd 5398 8dbd 8420 4b3d
00000360: 59a2 aabd 50b2 f0bc ceb0 04bd 00ee 4ebd
00000370: ecd7 5d3d 04a3 923d bce5 563d 1189 53bd
00000380: 74af 6a3d d7d0 b6bd 609d db3b 2000 18bd
00000390: c6fc 863d d8bd 2f3d aef7 c0bd c451 9cbc
000003a0: 3a41 a6bd 74d4 033d 30ec d33c 022f 10bd
000003b0: c6e9 0bbd 0a5e 6dbd 4001 c5bd 22c7 b9bd
000003c0: 3a32 98bd 2c51 c4bd 3abc 39bd 6e0a 34bd
000003d0: 4077 c1bb d016 9fbc 0824 dabc 9f51 c5bd
000003e0: d0f1 be3b 2859 0d3d 9654 a4bd 902e 1c3c
000003f0: e845 cd3d 8b7f 67bd 9055 8d3d a081 fc3c

outfc.bias f4 [10]
0.04684393 0.09374517 0.07371713 -0.008952916 0.095703185 0.033869103 0.047204077 -0.023882821
-0.11092528 -0.09224299
00000000: 6cdf 3f3d 78fd bf3d 02f9 963d 40af 12bc
00000010: 0800 c43d 54ba 0a3d 1059 413d e8a5 c3bc
00000020: cb2c e3bd e5e9 bcbd
