DigitNet.pt (torch, 847763 bytes, 10 tensors)

fc1.weight f4 [200, 784]
0	0xbbbc79b1	-0.0057518114
1	0x3b8621ad	0.00409337
2	0xbc76f791	-0.015073673
3	0x3d269ab5	0.040674884
4	0x3d0d9f73	0.03457589
5	0x3ca68b76	0.020330172
6	0xbbef5781	-0.0073041325
7	0x3d2812e9	0.04103366
8	0xbc288577	-0.010285727
9	0xbca762c3	-0.020432835
10	0x3d0929fd	0.03348731
11	0x3c0cb87e	0.008588908
12	0xbc9c0061	-0.01904315
13	0x3b82c204	0.0039904136
14	0xbc23adf7	-0.009990207
15	0x3b07b019	0.0020704328
16	0xbccd1e53	-0.025038874
17	0xbc58571d	-0.013204363
18	0x3ce3e022	0.027816836
19	0xbc8dbcae	-0.017301884
20	0x3c9912fd	0.018685812
21	0xbc9e8448	-0.019350186
22	0x3b11df08	0.002225818
23	0xbc4f6c0b	-0.012660037
24	0x3c86d77d	0.016460175
25	0x3b4ced28	0.0031269286
26	0x3c34c9ea	0.011034468
27	0xbc84c4a1	-0.016207041
28	0x3ccfeece	0.025382426
29	0x3c019a97	0.007910392
30	0xbb6a1644	-0.0035718838
31	0x3bbe8ed1	0.005815365
32	0xbca7fc11	-0.020505937
33	0x3d255b9d	0.040370572
34	0xbb0999bf	-0.002099618
35	0xbcc99b1f	-0.0246101
36	0xbca29378	-0.01984571
37	0x3cfd5018	0.03092198
38	0x3cda3320	0.026635706
39	0x3cb76870	0.022388667
40	0xbb73e3fe	-0.0037214751
41	0xbc7f9977	-0.015600554
42	0xbb594bb3	-0.0033156693
43	0xbcefa205	-0.029252062
44	0xbce4ae78	-0.027915224
45	0x3c280daa	0.010257164
46	0x3d223747	0.039603498
47	0xbc884eee	-0.0166392
48	0x3c5fedf5	0.013667573
49	0x3d010b8e	0.03150516
50	0xbbd96b9d	-0.006635143
51	0x3cfdbff2	0.030975316
52	0xbced66aa	-0.028979618
53	0x3a8439a2	0.0010087977
54	0x3cea2e90	0.028586656
55	0xbbe6cdb9	-0.007043567
56	0x3cb93576	0.0226085
57	0xbbf58401	-0.0074925427
58	0xbca9aa4c	-0.020711087
59	0x3bbc6e71	0.0057504703
60	0x3cec03b2	0.028810356
61	0x3d27cbaf	0.040965732
62	0xbccbc953	-0.024876272
63	0xbc731a00	-0.014837742
64	0x3d1fcc51	0.03901321
65	0x3d2560f9	0.040375683
66	0x3d065151	0.032792393
67	0x3b3fb998	0.002925491
68	0xbcbfcf4f	-0.023414282
69	0xbb193f82	-0.00233838
70	0x3bac83a0	0.0052647144
71	0x3b76e621	0.0037673789
72	0x3a8d99bf	0.0010803266
73	0x3c40e4f2	0.011773335
74	0xbcd7f590	-0.02636221
75	0x3d12518e	0.035722308
76	0xbc18e2b1	-0.009331391
77	0x3cd196cc	0.0255846
78	0x3cd31b70	0.02576992
79	0x3d2495e9	0.040182028
80	0xbc897f46	-0.016784322
81	0xbbf4c671	-0.007469945
82	0xbc0b9cdf	-0.008521288
83	0x3d24e269	0.040254984
84	0xbcdf5423	-0.0272618
85	0x3c0c6742	0.00856954
86	0x3ce1c250	0.027558476
87	0x3d0f0d57	0.03492483
88	0x3b4e5838	0.0031485688
89	0x3b888095	0.004165719
90	0x3c126dca	0.008937309
91	0x3b593959	0.0033145754
92	0x3d03d2e2	0.032183535
93	0x3c318b21	0.010836394
94	0x3d01e5a4	0.031713143
95	0xbc560a8a	-0.013064036
96	0xbc345f25	-0.011009012
97	0x3c65490f	0.013994469
98	0xbc4891a8	-0.012241758
99	0xbca553ef	-0.020181624
100	0x3af36e2d	0.0018572264
101	0x3a76b6df	0.0009411405
102	0xbcfaff77	-0.030639393
103	0x3d1d93fe	0.038471214
104	0xbcf5b0f1	-0.029991599
105	0xbc8ccef4	-0.017188527
106	0xbc83ae9c	-0.016074471
107	0x3cd42d92	0.025900636
108	0xbb8420f7	-0.00403225
109	0x3d1fd977	0.03902575
110	0xbc1224a5	-0.00891987
111	0x3c019e67	0.007911301
112	0xbc8573b3	-0.016290521
113	0x3be80c49	0.0070815426
114	0x3cd4ea3e	0.025990602
115	0xbc5565d1	-0.013024763
116	0x3c92b5d1	0.017908962
117	0x3d0c3dcd	0.034238625
118	0x3d281af7	0.04104134
119	0x3c61dcd5	0.013785561
120	0x3cad86a7	0.021182371
121	0x3d2031ea	0.0391101
122	0xbc11e619	-0.008904957
123	0x3cb12e03	0.021628385
124	0x3d225d7f	0.039639946
125	0x3b077358	0.0020668115
126	0xbca6acae	-0.020346012
127	0x3ca84607	0.020541204
128	0x3cc05d7f	0.023482082
129	0x3c1d4233	0.009598303
130	0xbc51b77a	-0.012800092
131	0xbcf34370	-0.029695243
132	0xbb015bda	-0.0019738586
133	0xbcd818da	-0.026379038
134	0x3cd45a08	0.025921836
135	0x3d2234aa	0.039601006
136	0x3be29849	0.0069151265
137	0xbc798db4	-0.015231539
138	0x3b550178	0.0032502096
139	0x3c911693	0.01771096
140	0x3c808d19	0.01569228
141	0xbc79ec02	-0.015254023
142	0x3bf0d819	0.0073499796
143	0x3b9582d3	0.0045627146
144	0x3bc1c7c1	0.005913705
145	0xbca9af93	-0.020713603
146	0x3c091d6a	0.008368829
147	0x3bdaf889	0.0066824597
148	0x3c6c4543	0.01442081
149	0xbcdf035a	-0.027223278
150	0x3c1de3f6	0.00963687
151	0xbb4abba2	-0.0030934592
152	0xbba915a4	-0.0051600505
153	0x3cff7fb9	0.031188833
154	0xbcd7a1c1	-0.026322247
155	0x3ca66603	0.020312315
156	0x3c26c58f	0.010178938
157	0x3b207a96	0.002448713
158	0xbc68d701	-0.014211417
159	0xbd0c3a44	-0.034235254
160	0xbcd83d9c	-0.026396565
161	0xbb86bc28	-0.0041117854
162	0xbc3d7deb	-0.011565666
163	0xbc0f0575	-0.008729328
164	0x3c721821	0.014776261
165	0xb87f3d1b	-6.0853647e-05
166	0x3cee63c2	0.029100303
167	0x3d051115	0.032486994
168	0x3d0af855	0.033928234
169	0x3c1edbea	0.009695986
170	0x3ca5247e	0.020159002
171	0x3d1dd6d5	0.038534958
172	0xbcaeabce	-0.021322157
173	0x3d26e5d1	0.040746514
174	0x3ce343dd	0.02774232
175	0xbc212cd6	-0.00983735
176	0xbc997034	-0.01873026
177	0xbcb1c6d3	-0.021701252
178	0x3d0be13b	0.034150343
179	0xbbd8d8b1	-0.0066176285
180	0xbceadb81	-0.02866912
181	0xbcb460a9	-0.022018747
182	0xbc4cb0c7	-0.012493319
183	0xbc7666ae	-0.015039129
184	0xbcccff45	-0.025024066
185	0xbd185b89	-0.03719667
186	0x3c6fdfef	0.014640792
187	0x3d055b2a	0.032557644
188	0xbc69c868	-0.014268972
189	0xbbfd3da3	-0.007728295
190	0xbbc3929e	-0.005968406
191	0xbcba4861	-0.022739591
192	0x3c2eff12	0.010680931
193	0xbc7148a7	-0.014726794
194	0x3c3afdbd	0.011413035
195	0xbbfecc7a	-0.0077758403
196	0xbcba0caf	-0.022711126
197	0xbcf2e2e2	-0.029649202
198	0x3d151bcd	0.036403466
199	0x3c58e31d	0.013237742
200	0x3c9ba0a1	0.018997492
201	0xb910e84b	-0.00013819446
202	0xbcccd8b2	-0.025005672
203	0xbcc0b57b	-0.023524037
204	0x3d23b4f8	0.039967507
205	0x3b9a7087	0.0047131213
206	0x3d231205	0.039812107
207	0xbbe6099c	-0.0070201885
208	0x3c6e40c3	0.014541808
209	0xbc633a2e	-0.013868852
210	0xbcbdc7be	-0.023166534
211	0xbca450b2	-0.02005801
212	0xbc8bd7aa	-0.01707061
213	0xbcfcd3e7	-0.030862762
214	0xbc4bd2d4	-0.012440402
215	0xbc578839	-0.013155037
216	0xbb4b9a73	-0.00310674
217	0x3b393a3c	0.002826347
218	0x3d284cba	0.041088797
219	0xbcb9f550	-0.022699982
220	0xbc996311	-0.018723996
221	0x3cc949b4	0.024571277
222	0xbc2e4e0d	-0.010638726
223	0xbceb1704	-0.028697498
224	0x3c3aaca9	0.011393704
225	0xbb481da1	-0.0030535238
226	0x3bbb10b9	0.0057087806
227	0xb8153925	-3.557759e-05
228	0x3d2266a6	0.039648674
229	0x3be25b49	0.0069078547
230	0xb9647a14	-0.00021789252
231	0xbcc3fa26	-0.023922991
232	0x3b80288d	0.003911084
233	0x3d13530b	0.035967868
234	0x3d09e056	0.03366121
235	0x3bd5b52d	0.006521842
236	0x3d17378b	0.036918204
237	0xbce3ceb7	-0.02780853
238	0x3cd7477d	0.026279205
239	0xbce25420	-0.027628005
240	0x3c71cc98	0.014758252
241	0xbc700dee	-0.014651759
242	0x3d0f497e	0.034982197
243	0x3d061729	0.03273693
244	0x3caa4f41	0.020789744
245	0x3c9b6a57	0.018971605
246	0xbcd0264c	-0.025408886
247	0x3c716597	0.014733694
248	0x3be9a9b9	0.007130828
249	0x3c989455	0.018625418
250	0xbc9fad77	-0.019491894
251	0xbcd9d1ac	-0.026589237
252	0xba2f3271	-0.00066832366
253	0x3cc6212e	0.024185743
254	0x3cc97cb8	0.024595603
255	0x3ca1d734	0.019755937

fc1.bias f4 [200]
0	0x3caa5d16	0.02079634
1	0xbd0f1922	-0.034936078
2	0xbd1b60dc	-0.03793417
3	0x3ca4af11	0.02010301
4	0x3c079a67	0.0082765585
5	0xbb1aba49	-0.002360957
6	0x3cbac6ff	0.022799967
7	0xbd047926	-0.0323421
8	0xbcd389bd	-0.025822515
9	0xbbd2451a	-0.006416929
10	0x3c38f6ee	0.011289341
11	0x3aaa7e3b	0.001300759
12	0xbd0c5f51	-0.03427059
13	0xbd3e43af	-0.046451267
14	0xbc666264	-0.014061544
15	0xbcda0c3f	-0.026617168
16	0x38750f49	5.8426787e-05
17	0x3c25b382	0.010113599
18	0x3c6b1195	0.014347454
19	0xbccdea44	-0.02513612
20	0xbcb1b7de	-0.02169412
21	0x3cfc14dd	0.030771667
22	0xbd45b3d2	-0.048267193
23	0x3cb1aeca	0.021689791
24	0xbc75829c	-0.014984753
25	0x3c53ab90	0.012919322
26	0x3d030397	0.031985845
27	0xbae4c792	-0.0017454496
28	0xbc0604d1	-0.008179859
29	0xbd2bb6a9	-0.041922245
30	0xbd2d3639	-0.04228804
31	0x3c98405d	0.018585378
32	0xbd1717a8	-0.036887795
33	0xbd2060a5	-0.039154667
34	0x3cb81433	0.02247057
35	0xbc9da58d	-0.01924398
36	0xbd0dbb35	-0.034602363
37	0xbce966a7	-0.028491331
38	0xbcc120a1	-0.023575129
39	0x39bdfe81	0.0003623851
40	0xbba363c9	-0.0049862606
41	0xbd397136	-0.045273982
42	0x3c091902	0.008367779
43	0xbc974674	-0.018466212
44	0xbc87747b	-0.016535034
45	0xbc8817b8	-0.016612872
46	0x3cde0f49	0.027106898
47	0xbc0b6880	-0.008508801
48	0xbcb21d33	-0.021742439
49	0x3c98c9eb	0.01865097
50	0xbc9c3e3b	-0.019072643
51	0x3c497376	0.012295594
52	0xbbf5d3f8	-0.0075020753
53	0x3c988d4a	0.01862206
54	0xbccfef21	-0.02538258
55	0xbc206191	-0.009788887
56	0xbd33fa87	-0.043940093
57	0xbb95a8f1	-0.0045672585
58	0x3cf7151f	0.030161439
59	0xbb19cb30	-0.0023467056
60	0xbd04100b	-0.032241862
61	0xbbaf257d	-0.005345045
62	0x3ca0c37f	0.01962447
63	0x3cd763ba	0.02629267
64	0xbd0f7608	-0.035024673
65	0xbd1a0e80	-0.037611485
66	0xbcc0ed50	-0.02355066
67	0xbc009278	-0.007847421
68	0xbc2d3dce	-0.010573817
69	0x3c607de5	0.013701891
70	0xbbe41aac	-0.0069611873
71	0xbcfd8962	-0.030949298
72	0xbbed9512	-0.0072504366
73	0xbcb31cf4	-0.021864392
74	0xbcc6a6ba	-0.024249423
75	0x3c8c833c	0.017152421
76	0xbd099794	-0.03359182
77	0xbbb1dea2	-0.005428151
78	0xbcb90afe	-0.02258825
79	0xbca82e7e	-0.020529982
80	0xbb760195	-0.0037537564
81	0xbd42c51a	-0.047551252
82	0x3c3289fe	0.010897158
83	0xbcf73e5e	-0.030181106
84	0xbd3f816c	-0.046754286
85	0xbc88b85a	-0.016689468
86	0xbcb9e864	-0.02269382
87	0x3c8c82f5	0.017152289
88	0xbc6d531e	-0.014485149
89	0x3c99b355	0.01876227
90	0x3cefdedf	0.029281078
91	0xbc878e5c	-0.016547374
92	0xbcb1b8bd	-0.021694535
93	0xbcf8a83e	-0.030353662
94	0xbb1f26f3	-0.002428469
95	0x3ce51788	0.027965322
96	0xbd07905a	-0.03309665
97	0xbd105ae1	-0.03524292
98	0x3bb20b8e	0.0054335063
99	0x3bf9861c	0.007614864
100	0x3ca1c9b8	0.019749507
101	0xbb8b0c31	-0.0042433967
102	0xbb8ae287	-0.00423843
103	0x3ccffcab	0.025389036
104	0xba64401d	-0.00087070634
105	0x3c91c378	0.017793402
106	0x3b86a966	0.0041095493
107	0xbd6abd1d	-0.05730926
108	0x3c69841c	0.014252689
109	0xbbf7e807	-0.0075655016
110	0x3d0187de	0.031623714
111	0x3c1ee0cb	0.0096971495
112	0x3d551380	0.05202055
113	0x3c9e2b6c	0.019307815
114	0xbd05fc9c	-0.03271161
115	0xba810023	-0.000984196
116	0xbd0e1b6e	-0.034694128
117	0xbbe256c4	-0.006907316
118	0xbc18ca1a	-0.0093255285
119	0x3c874482	0.01651216
120	0xbd07afe5	-0.03312673
121	0xbd03bb6a	-0.032161154
122	0xbcb3a050	-0.021927029
123	0xbc6e5958	-0.014547668
124	0xb990153e	-0.00027481647
125	0x3cf4baee	0.029874291
126	0xbc863fb6	-0.016387802
127	0xbbbec590	-0.005821891
128	0xbd0c7ac1	-0.034296755
129	0x3c98c9d0	0.01865092
130	0x3c9a0433	0.01880083
131	0xbc974432	-0.018465135
132	0xbcafa883	-0.021442657
133	0xbc8043ca	-0.015657324
134	0x3cce2ba7	0.0251673
135	0x3c3a3166	0.011364317
136	0x3ccf5d18	0.025312945
137	0xbcebaaf0	-0.028768033
138	0xbd0654de	-0.03279578
139	0xbcf4b17c	-0.029869787
140	0x3c5409ac	0.012941759
141	0xbd0b030d	-0.033938456
142	0xbd260b1d	-0.040537942
143	0xba860db2	-0.001022747
144	0x3c8dee0e	0.017325427
145	0xbd0b9b86	-0.034083866
146	0xbcbaaa08	-0.022786155
147	0xbcfe6b17	-0.031056924
148	0xbcd7e7a7	-0.026355578
149	0x3c9d82d7	0.019227428
150	0xbcfb932d	-0.030709827
151	0xbb2bbc88	-0.0026204903
152	0x3c1fabe9	0.009745576
153	0xb9553e55	-0.00020336483
154	0xbc9e916d	-0.019356454
155	0xbca37b2b	-0.019956192
156	0xbcdc55e5	-0.026896426
157	0x3c7df60b	0.015500556
158	0xbc8ffefb	-0.017577639
159	0xbca4ac0d	-0.020101571
160	0xbcce2a68	-0.025166705
161	0xbc791a8b	-0.015204082
162	0x3b802fbe	0.0039119413
163	0xbbb04d2f	-0.0053802948
164	0xbd042441	-0.032261137
165	0xbd07e6fc	-0.03317927
166	0xbd06e4e4	-0.03293313
167	0x3cc2a56f	0.023760526
168	0x3c91999f	0.017773448
169	0xbd10f7db	-0.035392623
170	0xb9b0342e	-0.00033608213
171	0x3c7148f8	0.01472687
172	0x3cf751ff	0.030190466
173	0x3c0b8590	0.0085157305
174	0x3ce0782a	0.027401049
175	0x3b829d22	0.003986017
176	0xbcccb459	-0.02498834
177	0x3b8d10ad	0.0043049664
178	0x3cf36721	0.029712262
179	0xbcc07eee	-0.023498025
180	0x3c095663	0.008382413
181	0xbcf3311e	-0.029686507
182	0x3b41824f	0.0029527133
183	0x3c935536	0.017984968
184	0xbc1d24b2	-0.009591268
185	0xbbc436e9	-0.005987991
186	0xbc77422b	-0.015091459
187	0x3c9ab812	0.0188866
188	0x3d2ed4e5	0.0426835
189	0xbd5d6bb6	-0.0540578
190	0xbd24a8e6	-0.040200137
191	0xbd2617ee	-0.040550165
192	0xbc95bc63	-0.018278306
193	0xbcd560de	-0.026047166
194	0x3c991583	0.018687015
195	0xbd3648d8	-0.044503063
196	0xbb4b6dc3	-0.0031040765
197	0x3acc6610	0.0015594382
198	0xbba3c75e	-0.0049981317
199	0x3c4f6b19	0.012659811

fc2.weight f4 [150, 200]
0	0xbce086d8	-0.027408049
1	0x3d8cb4af	0.068704
2	0x3d59a593	0.05313642
3	0x3daa42e7	0.08313542
4	0xbd45b107	-0.04826453
5	0x3daad2b2	0.08340968
6	0xbcef12f0	-0.029183835
7	0xbccf5488	-0.025308862
8	0xbd13a6b8	-0.036047667
9	0x3d36c7b6	0.044624053
10	0xbdef2ad8	-0.11678094
11	0x3d0f3f8c	0.034972712
12	0x3ddddd14	0.10833183
13	0x3d971c1c	0.07378408
14	0x3daae0f3	0.08343687
15	0xbcb16f71	-0.021659585
16	0xbddeb589	-0.10874469
17	0x3cb0aa95	0.021565715
18	0xbd82dd43	-0.063898586
19	0xbd8e60ab	-0.06952032
20	0x3d0bc142	0.034119852
21	0xbe058612	-0.13039425
22	0xbd9196df	-0.071088545
23	0x3ce982de	0.028504785
24	0xbcae745a	-0.021295715
25	0x3dd0ea4f	0.10200941
26	0xbdca269f	-0.09870648
27	0xbc942a95	-0.018086711
28	0xbd1ef2e3	-0.038805854
29	0x3e004d4f	0.12529491
30	0xbd88e996	-0.06685178
31	0x3db6071b	0.08888074
32	0xbd0dd4a1	-0.034626607
33	0x3c2bd241	0.01048714
34	0xbc44cb2c	-0.012011331
35	0x3d018474	0.031620458
36	0x3d2952a4	0.041338578
37	0x3d8674d2	0.065652505
38	0x3d5f22bf	0.054476496
39	0xbde8ad5f	-0.11361193
40	0xbe3f8c31	-0.18705823
41	0x3d876abd	0.066121556
42	0x3c5c18cf	0.013433649
43	0x3d89fec5	0.067380466
44	0xbd12bf82	-0.035827167
45	0x3d19d135	0.03755303
46	0x3d85e83e	0.06538437
47	0xbd628a90	-0.055307925
48	0x3d518327	0.051150467
49	0x3d3cfce1	0.0461396
50	0x3d3bb4aa	0.04582659
51	0x3e4b6c8d	0.19865628
52	0x3d038b58	0.03211531
53	0x3da47071	0.08029259
54	0x3dc1da20	0.09465432
55	0x3e19716c	0.14984673
56	0x3e1ff908	0.15622342
57	0x3e1e81e9	0.15479244
58	0xbdd7cea4	-0.105374604
59	0x3c844892	0.016147885
60	0x3dff07d5	0.12452666
61	0x3d42bb37	0.047541823
62	0x3dbd9fe7	0.092590146
63	0xb9ab2c4d	-0.00032648668
64	0x3cfcfc3c	0.030881993
65	0x3d169b87	0.036769416
66	0xbd30cade	-0.04316222
67	0x3d62dbe8	0.0553855
68	0xbcfca5f8	-0.030840859
69	0x3c9422c2	0.01808298
70	0x3cf35509	0.029703634
71	0xbb348278	-0.0027543586
72	0xbe118d6a	-0.14214101
73	0x3e3c475b	0.18386595
74	0x3c22fda8	0.009948172
75	0x3d3a2b51	0.045451466
76	0x3d5db06c	0.054123327
77	0xbdd88359	-0.105719276
78	0xbc00c8c0	-0.0078603625
79	0xbd2c0cc9	-0.04200438
80	0x3d495f68	0.049163252
81	0x3b82d968	0.003993202
82	0x3c12a761	0.008951039
83	0xbd622bc4	-0.05521752
84	0xbd3ec101	-0.04657078
85	0x3d1e1ba2	0.03860057
86	0x3d140bf1	0.0361442
87	0xbd637f50	-0.055541337
88	0x3d1895b4	0.037252143
89	0x3d4a61b0	0.04940957
90	0x3d8fb020	0.07016015
91	0x3c423758	0.011854015
92	0xbc613c0e	-0.013747228
93	0x3e59bc36	0.21263203
94	0x3de5f639	0.11228604
95	0xbd424b61	-0.04743517
96	0x3d283a26	0.04107108
97	0xbc32cc9e	-0.010913042
98	0x3d540cba	0.05176995
99	0xbbe19bf3	-0.0068850457
100	0x3d39a769	0.04532567
101	0x3d2fa7bd	0.042884577
102	0xbe5edf23	-0.21764807
103	0xbd8b6e8a	-0.06808193
104	0x3d882789	0.06648166
105	0x3d982c9a	0.07430382
106	0xbcae033e	-0.02124178
107	0xbd9d0d15	-0.07668511
108	0x3ddd8aa6	0.10817461
109	0xbcc3187f	-0.023815392
110	0xbd5d0308	-0.05395797
111	0xbc5be829	-0.0134220505
112	0xbcb35e17	-0.021895451
113	0x3d452ff1	0.048141424
114	0xbce315e0	-0.027720392
115	0x3d3185b8	0.043340415
116	0x3dede5f4	0.11616126
117	0x3d86453a	0.06556173
118	0xbd93d2b3	-0.07217922
119	0x3d43fc84	0.04784824
120	0x3d9e2db8	0.07723564
121	0x3d8578b7	0.06517165
122	0xbb19b83a	-0.0023455755
123	0x3d1ed1c8	0.03877428
124	0xbd859567	-0.06522637
125	0x3d79da6a	0.06099931
126	0x3d055620	0.03255284
127	0x3e2d6250	0.16932034
128	0x3d0103b6	0.03149768
129	0x3dfec429	0.12439758
130	0x3d615a7b	0.05501793
131	0x3d2016c3	0.039084207
132	0xbb8ef29e	-0.0043624183
133	0xbd43ab0a	-0.047770537
134	0x3de9d2a8	0.114171326
135	0xbc8a4e90	-0.016883165
136	0x3b2aeed2	0.002608229
137	0xbe26cea4	-0.16289765
138	0xbe960df8	-0.29307532
139	0xbce83a13	-0.028348004
140	0xbc159f34	-0.009132195
141	0x3d1f5d58	0.03890738
142	0xbdb19ee2	-0.086728826
143	0x3cbd5140	0.023110032
144	0x3ccfbf88	0.025359884
145	0x3cf161db	0.029465606
146	0xbd79abe8	-0.06095496
147	0xbd47c731	-0.048773948
148	0x3da105db	0.07862445
149	0xbca37496	-0.019953053
150	0xbbd079ad	-0.006362161
151	0xbc6543b8	-0.013993196
152	0x3d4d341f	0.050098535
153	0xbd53d8a1	-0.051720265
154	0xbc877364	-0.016534515
155	0xbe05b8c3	-0.13058762
156	0x3d37efdc	0.044906482
157	0xbb8b5070	-0.0042515323
158	0x3cd55803	0.026042944
159	0xbd8b5a2d	-0.06804309
160	0xbc70003e	-0.014648495
161	0xbdb8c24b	-0.090214334
162	0xbd38a4d1	-0.045079056
163	0x3cf48068	0.029846385
164	0xbd6a972a	-0.057273068
165	0x3deb2e08	0.11483389
166	0x3c310da5	0.010806476
167	0x3e3a103a	0.18170252
168	0xbd28f81e	-0.041252248
169	0xbb453298	-0.003008997
170	0x3db55fa0	0.0885613
171	0xbe5aefed	-0.21380587
172	0x3de4d77c	0.11173913
173	0xbe3d1cf8	-0.18468082
174	0xbe566026	-0.20935115
175	0x3d4414ff	0.047871586
176	0xbd6eb7a2	-0.058280595
177	0xbe3b9b17	-0.18320881
178	0x3d89841e	0.067146525
179	0x3d21a429	0.039463196
180	0xbe8c9fa5	-0.2746555
181	0xbc86b743	-0.016444808
182	0x3dbba120	0.091615915
183	0x3d450106	0.04809668
184	0x3bbdb783	0.0057896986
185	0xbca4f08c	-0.020134233
186	0x3cd07571	0.025446625
187	0x3d91f8e3	0.071275495
188	0xbd1cc52a	-0.038273968
189	0x3d4f6da5	0.050641675
190	0x3ccc21d7	0.02491848
191	0xbcd14a68	-0.025548175
192	0x3c9d6cfa	0.019217003
193	0x3d079412	0.033100195
194	0x3db367fd	0.087600686
195	0xbe3cc750	-0.18435407
196	0xbdb65408	-0.089027464
197	0x3c6a5678	0.014302842
198	0x3c62003b	0.013794
199	0xbd499ccc	-0.0492218
200	0xbb55b000	-0.0032606125
201	0x3b718e00	0.003685832
202	0xbd668976	-0.056283437
203	0x3cbe5b24	0.023236819
204	0x3c8f3cb8	0.017485008
205	0xbd07ba42	-0.033136614
206	0x3b852060	0.0040626973
207	0xbd7ba226	-0.061433934
208	0x3d6424aa	0.055699028
209	0xbda93601	-0.082622536
210	0xbd4350da	-0.047684528
211	0x3d3fc2b4	0.046816543
212	0xbd462d9a	-0.048383333
213	0xbd5543f1	-0.052066747
214	0xbda25374	-0.07926074
215	0x3ce09990	0.027416974
216	0x3d3241e1	0.04351986
217	0x3d10bb46	0.035334848
218	0xbd3946fa	-0.045233704
219	0x3d30de3a	0.04318068
220	0xbcac66b9	-0.021045076
221	0xbd7b4c11	-0.06135184
222	0xbd645305	-0.055743236
223	0x3d89b0db	0.06723186
224	0x3ca7b870	0.020473689
225	0xbd721891	-0.05910546
226	0x3d5937b6	0.053031646
227	0xbd72816f	-0.05920547
228	0xbdba53d4	-0.0909802
229	0x3d2e0e50	0.04249412
230	0xbd802a59	-0.06258077
231	0xbda560b0	-0.08075082
232	0xbd8b0416	-0.06787889
233	0x3d42d90a	0.047570266
234	0xbd5e4d20	-0.05427277
235	0x3c3ae7f0	0.011407837
236	0x3d4beea6	0.04978814
237	0xbd6fa026	-0.05850234
238	0xbd894a0e	-0.06703578
239	0x3d5373ce	0.05162411
240	0x3c979e85	0.018508205
241	0xbdcf7802	-0.101303115
242	0xbb18ac18	-0.0023295935
243	0xbd02d438	-0.03194067
244	0xbd27abc0	-0.040935278
245	0xbd410022	-0.047119267
246	0xbd89e3db	-0.06732913
247	0xbccb53f8	-0.024820313
248	0xbdb4ceff	-0.08828544
249	0xbd4fd9d5	-0.05074485
250	0x3d843819	0.06456012
251	0x3c80588a	0.015667219
252	0xbd275cca	-0.040859975
253	0xbb653f3d	-0.003498032
254	0xbd608320	-0.05481255
255	0xbc6ade5f	-0.014335244

fc2.bias f4 [150]
0	0xbd49862e	-0.04920023
1	0xbdaa31bd	-0.08310268
2	0xbdb31aed	-0.0874537
3	0x3cb876e0	0.022517622
4	0x3dc3633a	0.0954041
5	0xbdcf4460	-0.10120463
6	0x3d5c6626	0.053808354
7	0x3d906ba0	0.07051778
8	0x3d3fc6fa	0.04682062
9	0x3d1c95c8	0.03822878
10	0x3dab1552	0.08353676
11	0x3d70dfb3	0.058807086
12	0x3c04b60a	0.008100042
13	0x3d09e0b0	0.033661544
14	0x3d6d099f	0.057870504
15	0xbd558fce	-0.052139096
16	0xbdc11215	-0.09427277
17	0x3d6c334b	0.057666104
18	0xbc69b03e	-0.014263211
19	0xbda9afd1	-0.082854874
20	0xbe3c56a5	-0.18392427
21	0xbd5eb40b	-0.05437092
22	0x3d25d3a7	0.04048505
23	0x3dcc28ca	0.099687174
24	0x3b841156	0.004030387
25	0x3d260c44	0.04053904
26	0x3b98ef6e	0.004667214
27	0xbd2a1284	-0.041521564
28	0x3ccce67e	0.025012251
29	0xbdff562c	-0.12467608
30	0xbcac6d56	-0.02104823
31	0x3ca143a0	0.019685566
32	0x3e1cb8c9	0.15304865
33	0xbd1f4a9e	-0.03888952
34	0x3d031330	0.03200072
35	0xbd49900f	-0.04920965
36	0x3ddf44ab	0.10901769
37	0xbd93c340	-0.07214975
38	0x3e17478b	0.14773385
39	0xbe133acb	-0.14377896
40	0xbd3300c2	-0.043701895
41	0x3e30ad77	0.17253672
42	0xbddc8213	-0.10766997
43	0xbde14b31	-0.1100067
44	0x3c14121c	0.009037521
45	0x3d6c90c6	0.057755254
46	0xbc01ae07	-0.0079150265
47	0xbda99fb3	-0.08282413
48	0xbd7fbe9f	-0.06243765
49	0x3ccd9d1a	0.025099326
50	0x3c3894a2	0.011265906
51	0xbd4bc764	-0.0497507
52	0xbc046efc	-0.008083101
53	0xbc65fc12	-0.014037149
54	0x3e2dca82	0.16971782
55	0xbd083e04	-0.033262268
56	0xbccd3e47	-0.02505411
57	0xbdb230a3	-0.08700683
58	0x3d21e17f	0.03952169
59	0xbd89240c	-0.066963285
60	0xbdb0b350	-0.08627951
61	0x3d6f1a46	0.058374666
62	0x3d24b448	0.040210992
63	0xbda2b029	-0.07943756
64	0xbcc4edbd	-0.024039144
65	0xbd1d193e	-0.03835415
66	0x3ce2b3f9	0.027673708
67	0xbc0c55a9	-0.008565345
68	0xbd61d8c5	-0.05513837
69	0xbc83ae95	-0.016074458
70	0xbe1711ee	-0.14752933
71	0xbe0bb67a	-0.13643828
72	0x3d36e2bb	0.04464982
73	0x3bc5113f	0.006014019
74	0x3bb7f0dd	0.00561343
75	0x3d6a305d	0.05717503
76	0xbe07e125	-0.1326948
77	0xbde0b606	-0.10972218
78	0x3e371241	0.17878057
79	0x3c1fc242	0.0097509045
80	0xbd23fd41	-0.040036444
81	0xbdc55042	-0.096344486
82	0xbb885323	-0.0041603013
83	0x3d89da27	0.067310624
84	0x3d8bf342	0.06833507
85	0xbdb1f3e7	-0.08689099
86	0xbc90883c	-0.017643087
87	0x3ddb1848	0.10697991
88	0x3cf34972	0.029698107
89	0xbdcc0e8f	-0.09963714
90	0xbe1895e0	-0.14900923
91	0x3d4859ff	0.048913952
92	0xbd877d4c	-0.06615695
93	0x3cc91d26	0.024550032
94	0xbcbb3e82	-0.022856954
95	0xba884f18	-0.0010399548
96	0xbc310fe7	-0.010807014
97	0x3de6ad00	0.11263466
98	0x3c519434	0.012791682
99	0xbd8f725a	-0.07004233
100	0xbd121509	-0.035664592
101	0xbdcc1e64	-0.09966734
102	0xbd1a23eb	-0.03763191
103	0x3d28b5de	0.041189067
104	0x3ccec60c	0.02524092
105	0x3d76af54	0.0602258
106	0x3c9ee731	0.01939735
107	0x3dd061e7	0.101749234
108	0x3adec4af	0.0016995872
109	0xbd332366	-0.04373493
110	0x3df1bd2d	0.118036605
111	0xba945ed9	-0.0011319771
112	0x3d8c193b	0.0684075
113	0x3d4174a2	0.04723037
114	0xbdda05c6	-0.106456324
115	0x3dd6e064	0.10492018
116	0xbd887850	-0.06663573
117	0xbc1297f4	-0.008947361
118	0xbbf3c0b3	-0.007438743
119	0xbe48d6af	-0.19613145
120	0xbd32bbbc	-0.04363607
121	0xbd811e0d	-0.0630456
122	0x3d789647	0.06069019
123	0xbbbb463b	-0.0057151592
124	0x3e03b5b5	0.12862284
125	0xbcc15985	-0.023602257
126	0xbbfa29e4	-0.0076343883
127	0x3dc18e26	0.09450941
128	0xba7de2e7	-0.0009684995
129	0x3e15e6b5	0.14638789
130	0x3de1bb16	0.11022012
131	0xbb1ad999	-0.0023628233
132	0xbda6a9be	-0.081378445
133	0xbdb849e5	-0.08998469
134	0x3dfae3c4	0.12250474
135	0xbbc108ba	-0.005890933
136	0x3db98ce0	0.09060073
137	0xbd92fe13	-0.07177367
138	0xbe114999	-0.14188232
139	0x3c93ef61	0.01805848
140	0x3e20cb11	0.15702464
141	0xbda37791	-0.0798179
142	0xbd5efd2f	-0.054440673
143	0x3ae61f4e	0.0017556937
144	0xbe10ef93	-0.1415389
145	0xbe141015	-0.1445926
146	0x3e00d2a9	0.1258036
147	0x3d386f9e	0.04502832
148	0xbb027b2e	-0.0019909847
149	0xbdccdf56	-0.100035354

fc3.weight f4 [100, 150]
0	0x3c6b07a6	0.014345085
1	0x3d25c17e	0.04046773
2	0x3c6668af	0.014063044
3	0x3d70dbc7	0.058803346
4	0x3ca3520c	0.019936584
5	0x3d9f6e04	0.07784656
6	0x3c79303f	0.015209257
7	0xbd17b9c6	-0.0370424
8	0xbd5b6819	-0.053566072
9	0x3d86ec40	0.0658803
10	0x3d2fd414	0.042926863
11	0xbc827942	-0.01592696
12	0xbd98f290	-0.0746814
13	0x3d66ffd0	0.056396306
14	0xbd07ce76	-0.03315588
15	0x3ceb08d8	0.02869074
16	0xbce46292	-0.027879033
17	0xbddab064	-0.10678175
18	0x3d628a2f	0.055307563
19	0x3d0ddcbc	0.034634337
20	0xbd917727	-0.07102805
21	0xbd04891e	-0.032357328
22	0xbd4e37d5	-0.050346214
23	0xbcb0a096	-0.021560948
24	0xbd471dc2	-0.048612364
25	0xbda6f241	-0.08151675
26	0x3d748517	0.059697237
27	0x3a9b7c19	0.0011862546
28	0x3cc571ca	0.02410211
29	0xbde51f6a	-0.111876324
30	0x3c1db7e4	0.0096263625
31	0x3d2c5c8a	0.04208044
32	0xbd93a835	-0.07209817
33	0x3ceac48d	0.028658176
34	0xbde85615	-0.11344544
35	0xbd91a550	-0.07111609
36	0x3c107221	0.008816273
37	0xbdc52dec	-0.096278995
38	0xbd9674ff	-0.07346534
39	0xbd347ce2	-0.04406441
40	0x3d972ae8	0.073812306
41	0xbd6dce26	-0.058057927
42	0xbdbf8c9f	-0.09352993
43	0xbbc2415e	-0.0059282025
44	0xbd19e5a6	-0.037572525
45	0x3cceff8a	0.025268335
46	0xbd0468df	-0.032326575
47	0xbd7c5a8b	-0.061609786
48	0x3d879557	0.06620281
49	0x3d44c8f7	0.048043218
50	0xbd5b6aae	-0.053568535
51	0xbcdc0fe6	-0.02686305
52	0xbd90f566	-0.07078056
53	0x3d8ef968	0.06981164
54	0x3cf957df	0.030437408
55	0x3a6cd7fe	0.0009034871
56	0x3c7c0f61	0.015384526
57	0x3d1209fc	0.035654053
58	0xbc1dc559	-0.009629571
59	0x3b9e76e0	0.0048359483
60	0x3c5acc68	0.013354398
61	0xbc069035	-0.008213093
62	0xbd4fdf5a	-0.050750114
63	0x3d8aceef	0.06777751
64	0x3ccca9a9	0.024983244
65	0xbda16a18	-0.07881564
66	0x3d2889c0	0.041146994
67	0xbd112df5	-0.03544422
68	0xbd8a5439	-0.067543454
69	0xbd134dae	-0.035962753
70	0xbd31d456	-0.04341539
71	0xbcbdbf68	-0.023162559
72	0xbca7d0f0	-0.020485371
73	0xbd8fb2b7	-0.07016509
74	0x3cda4ed7	0.026648922
75	0x3ccf8a44	0.025334485
76	0x3cb9e23e	0.022690888
77	0x3d79ddeb	0.061002653
78	0xbdb141ee	-0.08655153
79	0x3cebcdad	0.028784597
80	0xbd8e7e4d	-0.06957684
81	0xbc1e40b4	-0.009658981
82	0xbb79e429	-0.0038130379
83	0xbc8b1436	-0.01697741
84	0xbd052061	-0.032501582
85	0xbd9008fd	-0.070329644
86	0x3d86007f	0.06543063
87	0xbc79422a	-0.015213529
88	0xbda5e1fa	-0.08099742
89	0xbc30a338	-0.010781102
90	0xbcb7ecea	-0.022451837
91	0xbd01c029	-0.0316774
92	0x3c475a50	0.012167528
93	0xbb89a2fe	-0.0042003384
94	0x3cd77143	0.026299125
95	0xbdbc4cdf	-0.091943495
96	0xbd291742	-0.041281946
97	0x3c4788bd	0.012178597
98	0xbde3bb81	-0.11119748
99	0xbd128f40	-0.035781145
100	0xbdb43740	-0.087996006
101	0x3c4c7858	0.012479864
102	0x3c827ae6	0.015927743
103	0xbcee8e6d	-0.029120648
104	0x3d0b90ce	0.034073643
105	0xbd8c80c8	-0.068605006
106	0xbd96b48a	-0.07358654
107	0x3d2c2f93	0.042037558
108	0x3b5ee415	0.003401046
109	0xbc01f54b	-0.007932018
110	0x3d211cb0	0.039334
111	0xb9f9b834	-0.00047630223
112	0xbc94526f	-0.018105714
113	0xbd8b75cf	-0.068095796
114	0xbcac4577	-0.021029217
115	0xbc11cc80	-0.008898854
116	0xbd995ef2	-0.074888125
117	0xbd6ee608	-0.058324844
118	0x3d641577	0.055684533
119	0xbd87f2b3	-0.06638088
120	0x3d6888d6	0.056771122
121	0x3ba5db50	0.0050615445
122	0xbdaf7518	-0.08567256
123	0xbddd19ea	-0.10795958
124	0xbd18f66f	-0.037344392
125	0xbd21ac05	-0.03947069
126	0xbd9b0cd1	-0.07570804
127	0x3c836d3b	0.016043296
128	0x3c126f64	0.00893769
129	0xbd8a469a	-0.067517474
130	0xbddd0801	-0.10792542
131	0xbde58b71	-0.11208237
132	0xbd3553d0	-0.044269383
133	0xbdad6029	-0.08465607
134	0xbd3ad6d0	-0.045615017
135	0xbca57e02	-0.020201687
136	0xbc9aed49	-0.018911975
137	0xbd53b429	-0.051685486
138	0x3d8b8e41	0.06814242
139	0x3cc32a6c	0.02382394
140	0xbd2f0567	-0.04272976
141	0xbda93170	-0.082613826
142	0xbd3129f2	-0.043252893
143	0xbbd870d8	-0.006605249
144	0xbde35b22	-0.111013666
145	0xbb8b060f	-0.0042426656
146	0x3cc579ae	0.024105873
147	0xbd0a03fb	-0.033695202
148	0xbd2bf4c7	-0.041981485
149	0xbd68724e	-0.056749634
150	0xbdb968d6	-0.09053199
151	0xbd8f3c0e	-0.069938764
152	0xbe0c2355	-0.13685353
153	0xbd680432	-0.056644626
154	0x3dabd92d	0.08391032
155	0xbcc09edd	-0.023513252
156	0x3d72316b	0.05912916
157	0xbc507e98	-0.012725495
158	0x3df4f4ef	0.1196078
159	0x3d76fa25	0.06029715
160	0x3c45b691	0.012067453
161	0x3e31ab2d	0.17350455
162	0x3cd5e85f	0.02611178
163	0x3ccce176	0.025009852
164	0x3d4677c6	0.04845407
165	0x3bc9371f	0.006140604
166	0xbdd44ae3	-0.10365846
167	0xbb9079ad	-0.004409036
168	0xbe12afda	-0.14324895
169	0xbd5c6168	-0.05380383
170	0xbde5a613	-0.11213317
171	0xbe2ba370	-0.16761565
172	0x3d6ab337	0.05729982
173	0x3e2e8486	0.17042741
174	0x3c8ecd06	0.017431747
175	0xbdb5ba49	-0.08873422
176	0xbc1174a3	-0.008877906
177	0x3d4cf53d	0.050038565
178	0x3e117448	0.14204514
179	0xbdc02261	-0.09381557
180	0xbe07984d	-0.13241692
181	0xbcf18bca	-0.029485602
182	0x3dd62e14	0.104580075
183	0x3d33d28f	0.043901976
184	0xbcacfcdc	-0.021116666
185	0xbd164414	-0.036686018
186	0xbc857f06	-0.016295921
187	0xbd2cbb47	-0.04217079
188	0x3d891ca8	0.06694919
189	0xbdb529cb	-0.08845862
190	0x3b7e8bd0	0.003884066
191	0x3e2babd5	0.16764767
192	0xbd92992a	-0.0715812
193	0xbdcd42fb	-0.10022541
194	0xbd298493	-0.0413862
195	0x3d7820e0	0.060578227
196	0x3e0b9c35	0.13633807
197	0xbddf256e	-0.10895811
198	0xbceed33f	-0.029153464
199	0x3ce1759b	0.027521899
200	0xbd751c80	-0.059841633
201	0xbdab99cf	-0.08378946
202	0xbdc57e35	-0.09643213
203	0x3d745374	0.0596499
204	0xbd8477de	-0.06468175
205	0xbd0bb2eb	-0.034106176
206	0x3b9bf905	0.00475991
207	0x3b839bf5	0.0040163943
208	0x3d456d3a	0.04819987
209	0xbeb629c1	-0.3557873
210	0xbe7db50b	-0.24776094
211	0x3d1c5219	0.038164232
212	0x3dc45e11	0.09588254
213	0xbe51f84a	-0.20504871
214	0xbde2d4ee	-0.11075769
215	0xbe8c4ed6	-0.27403897
216	0x3c8e88fd	0.017399305
217	0x3d60895b	0.054818492
218	0xbdb26cce	-0.08712159
219	0xbdc5d257	-0.0965926
220	0xbd0dda77	-0.034632172
221	0xbc4d1283	-0.012516621
222	0xbdd18525	-0.102304734
223	0x3c67aef9	0.014140838
224	0xbbcdcb5e	-0.006280347
225	0x3ead99a7	0.3390629
226	0xbead5e34	-0.33860934
227	0xbc9bdfcb	-0.019027611
228	0x3e04ce65	0.12969358
229	0x3d9c5d4c	0.076349825
230	0x3d248baa	0.040172257
231	0xbcfd0c66	-0.030889701
232	0x3ce0e006	0.027450573
233	0x3d46663c	0.048437342
234	0xbdc7707b	-0.09738251
235	0x3d5e6dc5	0.054303903
236	0x3a69cea1	0.0008919035
237	0x3d1c3536	0.038136683
238	0x3d160da4	0.036634102
239	0x3cfb38d2	0.030666742
240	0xbe058432	-0.1303871
241	0x3da1fc7d	0.079094864
242	0xbcaee15f	-0.0213477
243	0xbdecc7f1	-0.11561573
244	0xbc9c709e	-0.019096669
245	0xbcdca080	-0.026932001
246	0x3dcd4dd9	0.10024614
247	0xbaf9ce47	-0.0019058668
248	0x3cfa8bba	0.030584205
249	0xbe00253a	-0.12514201
250	0x3d25d2ac	0.040484115
251	0xbda45c2e	-0.080253944
252	0xbc3132aa	-0.010815302
253	0x3c6e12e9	0.014530876
254	0x3e85b6e6	0.26116103
255	0xbd48adf1	-0.04899401

fc3.bias f4 [100]
0	0xbc9176c3	-0.017756825
1	0x3e6ee89b	0.2333092
2	0xbda8a769	-0.08235056
3	0xbdb96ee4	-0.09054354
4	0xbdcb5b94	-0.099295765
5	0x3d31fcea	0.04345409
6	0x3b1df89b	0.002410448
7	0xbe3ade84	-0.18248945
8	0x3e857fb1	0.26073983
9	0x3ddc62a4	0.10761002
10	0x3e5ba95e	0.21451327
11	0xbdf2d5d3	-0.1185719
12	0x3d8aac59	0.06771154
13	0x3cd29431	0.025705429
14	0x3bf7a8b4	0.007557953
15	0x3d043238	0.032274455
16	0x3e676fc1	0.22601224
17	0x3d811699	0.06303138
18	0xbd9a51ab	-0.07535108
19	0xbd258054	-0.040405586
20	0xbd0e6249	-0.0347617
21	0xbcfded06	-0.03099681
22	0xbccb6056	-0.02482621
23	0xbe256ee7	-0.16155587
24	0x3d804df5	0.06264869
25	0x3bceb4b3	0.006308162
26	0x3d27c813	0.04096229
27	0xbd06e6fa	-0.03293512
28	0xbe39dc04	-0.18150336
29	0xbd6fe00c	-0.058563277
30	0xbd80646f	-0.06269156
31	0xbdba2589	-0.090891905
32	0x3d9eb5aa	0.077494934
33	0x3c78fe16	0.015197298
34	0x3abb7c36	0.0014303986
35	0xbdc63c80	-0.09679508
36	0x3e2af0c1	0.16693403
37	0x3c9413e1	0.018075885
38	0xbe03624a	-0.12830463
39	0x3df67337	0.12033694
40	0xbdb975bb	-0.090556584
41	0x3ab20af6	0.0013583589
42	0xbbf99b1f	-0.007617369
43	0x3d7b36b5	0.06133147
44	0xbdaf51c6	-0.08560519
45	0xbe05b201	-0.13056184
46	0xbd9d217a	-0.07672401
47	0x3d4a146c	0.049335882
48	0xbd78e080	-0.060760975
49	0x3cb09a8f	0.021558074
50	0x3cacef80	0.021110296
51	0xba6150e4	-0.00085951225
52	0x3e85d953	0.26142368
53	0xbbb3fa2b	-0.005492469
54	0xbc04b9fe	-0.008100985
55	0xbdad9772	-0.084761515
56	0x3dc38c73	0.09548273
57	0xbe08a284	-0.13343245
58	0xbd682f94	-0.056686
59	0xbd0feda0	-0.035138726
60	0xbc82cedb	-0.015967777
61	0x3e08b180	0.13348961
62	0xbb965e97	-0.0045889127
63	0xbdfa8824	-0.12232998
64	0xbd1e37ea	-0.038627543
65	0xbcd91377	-0.02649854
66	0x3bc1d56b	0.005915334
67	0x3c0e2012	0.008674638
68	0x3bfe3200	0.0077574253
69	0x3cecbf68	0.028899863
70	0xbd05c5a8	-0.032659203
71	0x3e5abe98	0.21361768
72	0x3cf86428	0.030321196
73	0x3df2018d	0.11816702
74	0x3ce5c957	0.028050108
75	0x3d375f66	0.044768713
76	0x3d4cbf0d	0.049986888
77	0x3cda8408	0.026674286
78	0x3e1157c3	0.14193635
79	0xbde6ca51	-0.112690575
80	0xbdb86a38	-0.090046346
81	0xbca0f41c	-0.01964765
82	0xbdaa08a6	-0.08302431
83	0x3ca7a65f	0.020465074
84	0x3ddf42c3	0.10901406
85	0xbdfc55ae	-0.123210296
86	0x3dde2d7a	0.10848518
87	0xbd8e3a2e	-0.06944691
88	0x3d0c9e93	0.034330916
89	0xbda83b61	-0.08214451
90	0x3d86d43d	0.0658345
91	0xbab3b68f	-0.0013711023
92	0xbe0ccfa0	-0.13751078
93	0x3e0ce716	0.13760027
94	0xbe091263	-0.1338592
95	0x3e43051f	0.19044922
96	0xbdb316be	-0.08744572
97	0x3de002a4	0.10938004
98	0x3bda4831	0.006661438
99	0x3dda817e	0.1066923

fc4.weight f4 [80, 100]
0	0x3d210901	0.039315227
1	0xbdd0c68e	-0.10194121
2	0x3ddbddcd	0.107356645
3	0x3d48f6ee	0.049063616
4	0xbceadfab	-0.028671106
5	0xbbdd594e	-0.0067550307
6	0xbd9e2bf6	-0.07723229
7	0x3d0cb50a	0.03435234
8	0xbd9e3514	-0.077249676
9	0xbe354c35	-0.17704852
10	0xbd91fc72	-0.07128228
11	0x3d3f8282	0.04675532
12	0x3da37a58	0.079823196
13	0xbd079c0c	-0.033107802
14	0xbd6ea681	-0.05826426
15	0xbd42b2d3	-0.04753382
16	0xbb9162b7	-0.0044368166
17	0x3d75dfed	0.060028005
18	0xbd327bff	-0.043575283
19	0x3d86aeb3	0.0657629
20	0x3d07415e	0.033021323
21	0x3c3a7506	0.01138044
22	0x3e764272	0.24048784
23	0xbcc1d489	-0.023660915
24	0x3dd0615b	0.10174819
25	0xbd37a4ed	-0.04483502
26	0x3e29d5da	0.16585484
27	0x3e0c40fe	0.13696668
28	0x3ddb8a82	0.10719778
29	0x3de7e654	0.113232285
30	0x3d93f2aa	0.07224019
31	0xba449916	-0.0007499618
32	0x3de61880	0.11235142
33	0xbc10a31f	-0.008827954
34	0x3d75b55c	0.05998741
35	0x3e583c26	0.21116695
36	0xbe7d207f	-0.24719428
37	0x3d718615	0.05896576
38	0x3e03eb0e	0.12882635
39	0xbe392f78	-0.18084514
40	0xbdcfa4df	-0.101388685
41	0x3e6a46fa	0.22878638
42	0xbe1c3a30	-0.15256572
43	0x3c45f96b	0.012083392
44	0xbcf12243	-0.029435283
45	0x3d23eb58	0.040019363
46	0xbd1186bc	-0.035528883
47	0x3d939e02	0.07207872
48	0x3dbf8484	0.09351447
49	0x3d768ef0	0.06019491
50	0x3da1e367	0.07904702
51	0x3d959e0d	0.073055364
52	0xbd5fccf8	-0.054638833
53	0x3d34b199	0.044114683
54	0x3dd0c42d	0.101936676
55	0x3d7f2392	0.062289782
56	0xbd370ce2	-0.04469002
57	0xbd1076f0	-0.035269678
58	0x3d272f78	0.040816754
59	0x3d538d4e	0.05164843
60	0x3d4b241c	0.049594983
61	0x3d6c8f9d	0.057754148
62	0x3d607672	0.05480046
63	0xbd88f74c	-0.06687793
64	0x3aeb8a12	0.0017970225
65	0x3e3062b6	0.17225155
66	0x3dae76e0	0.08518767
67	0xbd9c7389	-0.07639224
68	0x3e4ba7d5	0.19888242
69	0xbd00d0f9	-0.03144929
70	0x3e0c1fd7	0.13684021
71	0x3d62f12c	0.05540578
72	0x3d71cce2	0.059033282
73	0x3da9dc1b	0.08293935
74	0x3db15f84	0.08660796
75	0x3d0acf84	0.03388931
76	0x3e711304	0.2354241
77	0x3d104c35	0.035228927
78	0xbd4c0bcf	-0.04981595
79	0x3e0ac17c	0.13550371
80	0x3d888df5	0.06667701
81	0xbd91cfcb	-0.071197115
82	0x3db10ba6	0.086448
83	0x3da776b4	0.08176938
84	0x3c97ca0a	0.018528957
85	0x3dbfc01e	0.09362815
86	0xbd6401cd	-0.05566578
87	0xbd8a2567	-0.06745415
88	0x3d77378c	0.060355708
89	0xbe50d5d5	-0.2039407
90	0xbceba127	-0.028763367
91	0x3da039c6	0.078235194
92	0xbd70a564	-0.05875148
93	0x3c1e2bd9	0.009654009
94	0x3cadae08	0.021201149
95	0xbdad29da	-0.08455248
96	0x3c548e43	0.012973371
97	0x3ce8f664	0.0284378
98	0x3d4fc79c	0.05072747
99	0x3d638201	0.055543903
100	0xbcff95aa	-0.031199295
101	0x3dfc8139	0.12329335
102	0xba8fe955	-0.0010979573
103	0x3d5b926c	0.053606436
104	0x3daaf658	0.083477676
105	0x3d82f25a	0.06393881
106	0xbd14e5aa	-0.036351837
107	0x3bb75115	0.0055943825
108	0x3dd3241d	0.103096224
109	0x3e2bf7fa	0.16793814
110	0xbda5cd22	-0.080957666
111	0x3d641c73	0.055691194
112	0x3e0e5f33	0.13903503
113	0xbb18837f	-0.0023271737
114	0x3d4a7d8f	0.04943615
115	0xbd5bef9e	-0.053695314
116	0x3e068ea9	0.13140358
117	0xbcdf8fd4	-0.027290262
118	0xbd89c9dd	-0.067279555
119	0xbe4119fa	-0.18857566
120	0x3d58b31d	0.05290519
121	0xbd17fc16	-0.037105642
122	0xbcdae689	-0.026721256
123	0xbdae4a10	-0.0851022
124	0x3d522f88	0.05131486
125	0xbcd90202	-0.026490215
126	0xbd20f8a8	-0.039299637
127	0xbb85cae7	-0.0040830257
128	0xbb37dafe	-0.0028054113
129	0xbd95bf00	-0.07311821
130	0xbc819b85	-0.015821228
131	0xbd578389	-0.052615676
132	0x3d55ac1c	0.05216609
133	0x3c536df7	0.012904636
134	0x3c879cf3	0.016554331
135	0xbd23b9f3	-0.039972257
136	0x3dc37024	0.095428735
137	0xbd7a63b5	-0.061130244
138	0xbddf63c0	-0.10907698
139	0x3d74b168	0.0597395
140	0xbd4e8ce2	-0.050427325
141	0x3c667ea3	0.0140682785
142	0x3d71eb27	0.05906215
143	0xbe01c739	-0.12673654
144	0x3dd965ad	0.10615096
145	0x3df3f43e	0.1191182
146	0xbc671e95	-0.014106412
147	0x3d0a6522	0.033787854
148	0x3e133638	0.14376152
149	0x3d236999	0.039895628
150	0xbd22e620	-0.039770246
151	0x3ce98fa2	0.028510872
152	0x3e2314a6	0.15925846
153	0x3cbb337f	0.022851704
154	0x3d345ea1	0.044035558
155	0xbc1b0d15	-0.009463568
156	0x3d401f33	0.046904754
157	0x3e36429e	0.1779885
158	0xbd6898d8	-0.05678639
159	0xbdf85b2f	-0.12126767
160	0x3d68e5e3	0.056859862
161	0x3d60a02a	0.054840244
162	0xbdbedf1e	-0.093199
163	0xbd588583	-0.0528617
164	0x3cc4b289	0.024010913
165	0x3e64b60d	0.22335072
166	0x3d6192b4	0.055071548
167	0xbd1edd96	-0.03878554
168	0xbdcfc9b4	-0.10145894
169	0xbd6a35db	-0.057180267
170	0xbdf907d6	-0.12159698
171	0x3e088f20	0.13335848
172	0xbc0b9597	-0.008519552
173	0x3d8ec9f1	0.06972111
174	0xbe1ae781	-0.15127374
175	0x3c2fc77e	0.010728715
176	0xbe2cfa7d	-0.16892429
177	0x3bf3e166	0.007442641
178	0xbc643794	-0.0139292665
179	0xbd8e0523	-0.069345735
180	0xbb86bd73	-0.0041119396
181	0x3d144a41	0.036203627
182	0xbd260205	-0.04052927
183	0xbdf906dc	-0.121595114
184	0xbdff7ca0	-0.12474942
185	0xbdf83874	-0.121201426
186	0x3cea204f	0.028579859
187	0xbc108f53	-0.008823234
188	0x3c98940d	0.018625284
189	0x3c9786f8	0.018496975
190	0x3dd43d53	0.10363259
191	0x3d48464d	0.04889517
192	0x3d86cb70	0.065817714
193	0xbd044458	-0.03229174
194	0xbb537dc5	-0.003227101
195	0xbc4264c9	-0.011864849
196	0x3d314fbf	0.043288942
197	0xbe080e77	-0.13286768
198	0xbe0b2791	-0.13589312
199	0x3d5897bf	0.05287909
200	0x3d9b4a6d	0.07582555
201	0x3e1b0595	0.15138848
202	0x3e018404	0.12648016
203	0x3db0bc5b	0.08629676
204	0xbc1e0a25	-0.009645973
205	0x3dd5fa31	0.10448111
206	0xbd5901b0	-0.052980125
207	0xbe148c59	-0.14506663
208	0x3dba057b	0.090830766
209	0x3cd90ddc	0.026495866
210	0x3c226f54	0.009914238
211	0x3d36d718	0.044638723
212	0x3de765d2	0.112987176
213	0xbdc9fd88	-0.098628104
214	0x3ddfa117	0.10919397
215	0x3ccb4ccc	0.024816893
216	0x3e462aba	0.19352236
217	0xbe14f82b	-0.14547794
218	0x3c90025e	0.017579254
219	0x3d24c036	0.04022237
220	0x3d229813	0.03969581
221	0xbd951b69	-0.07280619
222	0xbe00552d	-0.12532492
223	0x3c87a02a	0.016555864
224	0xbd571c8d	-0.052517463
225	0x3c92ba1c	0.01791101
226	0x3d2375d2	0.039907284
227	0x3c30fe75	0.010802855
228	0xbc4c2f5e	-0.012462465
229	0x3d38ba75	0.045099694
230	0xbd24abf7	-0.04020306
231	0x3bdde665	0.00677185
232	0xbd9430d0	-0.07235873
233	0xbdb6a3ae	-0.08917938
234	0x3dd32856	0.10310428
235	0x3d003eee	0.031310014
236	0x3b3a1c97	0.0028398389
237	0x3e42a8f2	0.1900976
238	0x3c899a4e	0.016797211
239	0x3e4887cb	0.19583051
240	0x3d813e38	0.063106954
241	0xbcb9f61d	-0.022700364
242	0xbda8ab68	-0.08235818
243	0x3d7e19c7	0.062036302
244	0x3c420bf1	0.011843667
245	0xbcc0c0e0	-0.02352947
246	0xbd257c6b	-0.040401857
247	0xbd523838	-0.051323146
248	0xbda29921	-0.07939363
249	0x3baf1fb4	0.0053443555
250	0x3c533d05	0.012892966
251	0x3e19ac02	0.15007022
252	0x3e3b30a0	0.18280268
253	0xbe6a67d9	-0.22891177
254	0xbb7e68e3	-0.0038819842
255	0x3e345b39	0.17612924

fc4.bias f4 [80]
0	0xbe0d13e6	-0.13777122
1	0x3e105f6b	0.14098899
2	0x3e9118dd	0.28339282
3	0x3e0c121f	0.13678788
4	0xbe5b9e4d	-0.21447106
5	0x3d364183	0.04449607
6	0x3da33c46	0.079704806
7	0x3d0916ae	0.033468895
8	0x3e30a90a	0.17251983
9	0xbd410960	-0.04712808
10	0xbd5c8cc6	-0.05384519
11	0xbdf326e3	-0.118726514
12	0xbd8960d2	-0.0670792
13	0xbe124085	-0.14282425
14	0x3e196f58	0.1498388
15	0x3daca745	0.08430342
16	0xbde1c86a	-0.11024554
17	0xbdd8c232	-0.10583915
18	0x3e869094	0.2628218
19	0xbda24e54	-0.07925096
20	0xbda2bfbe	-0.07946728
21	0xbdb46132	-0.08807601
22	0x3dcf8fba	0.101348355
23	0x3e4a2962	0.19742349
24	0xbd1661d2	-0.036714382
25	0x3d801c69	0.06255419
26	0x3e008347	0.12550078
27	0x3dbb2fa1	0.09139944
28	0xbd1b5093	-0.03791864
29	0x3d776f54	0.060408905
30	0x3d5c3690	0.053762972
31	0x3cbb63d0	0.022874743
32	0xbd56c50f	-0.052434023
33	0x3da156a8	0.078778565
34	0xbdb27b64	-0.08714941
35	0xbd96c230	-0.07361257
36	0x3e12fd0b	0.1435434
37	0x3b6a44ab	0.0035746496
38	0xbcd102bd	-0.025514001
39	0x3e134a59	0.1438383
40	0x3d31af97	0.043380346
41	0x3d71a13e	0.058991663
42	0xbdd7d99a	-0.10539551
43	0xbdb00d64	-0.08596304
44	0x3d977b53	0.07396569
45	0xbd99f948	-0.0751825
46	0xbdbbe8fa	-0.09175296
47	0x3c8a24ce	0.016863253
48	0x3e502043	0.20324807
49	0xbdde31db	-0.10849353
50	0x3d9a1407	0.07523351
51	0xbd859068	-0.06521684
52	0xbe013adb	-0.12620108
53	0x3de1632c	0.11005244
54	0x3de2114f	0.110384576
55	0x3ddcefe1	0.10787941
56	0xbc0379ad	-0.008024615
57	0x3db56fe7	0.08859234
58	0xbcf0fe9d	-0.029418284
59	0x3e359010	0.17730737
60	0xbbc65466	-0.0060525415
61	0x3b9b19dd	0.0047333078
62	0x3d59b70b	0.05315308
63	0x3e2c2f5a	0.16814938
64	0xbd5260b0	-0.05136174
65	0xbd6bd78e	-0.057578616
66	0xbcd81df2	-0.026381467
67	0xbb27a396	-0.0025579683
68	0xbddf2322	-0.10895373
69	0xbdb2af35	-0.08724824
70	0x3ce5304e	0.027977135
71	0xbd1ce317	-0.038302507
72	0x3de85404	0.1134415
73	0xbbd146fa	-0.006386635
74	0x3e733000	0.2374878
75	0xbd75e930	-0.060036838
76	0x3c17055d	0.009217587
77	0x3d5e1ca6	0.05422654
78	0x3e2efa39	0.1708764
79	0xbd391e15	-0.045194704

outfc.weight f4 [10, 80]
0	0xbe3cbdd5	-0.1843179
1	0x3dde45f5	0.10853187
2	0xbda7e1bd	-0.08197353
3	0x3c9b8cc7	0.018988026
4	0x3d24dc97	0.040249433
5	0x3df96ada	0.121785834
6	0x3dddefe5	0.10836772
7	0xbdd257b6	-0.10270636
8	0xbd6ba84f	-0.05753356
9	0x3d9144c2	0.07093193
10	0x3d6c317e	0.057664387
11	0x3d201191	0.039079253
12	0x3b5f97fa	0.0034117685
13	0x3dc34798	0.0953514
14	0x3d828dc4	0.06374696
15	0x3d5557b8	0.05208561
16	0xbd6d83f1	-0.057987157
17	0x3ccfad6a	0.025351245
18	0x3d9cb63f	0.07651948
19	0x3c6345c3	0.013871613
20	0xbe02d91e	-0.12778136
21	0xbd2d23a1	-0.042270306
22	0x3d9f38f5	0.077745356
23	0xbda4bb45	-0.08043531
24	0x3dd6a433	0.10480537
25	0xbc804f70	-0.015662879
26	0xbea1af79	-0.31579188
27	0xbe3c4d7d	-0.18388934
28	0x3b84f821	0.0040578996
29	0x3e3ab6db	0.18233816
30	0x3d7e0373	0.06201501
31	0xbe8ffe33	-0.28123626
32	0x3cb7642b	0.022386631
33	0xbe5e6f7b	-0.21722214
34	0xbe1616ff	-0.1465721
35	0xbd85e51b	-0.06537839
36	0xbe525831	-0.20541455
37	0xbd1d151b	-0.038350206
38	0x3df73586	0.12070756
39	0xbe045b3f	-0.12925433
40	0xbdec954c	-0.115519136
41	0xbe64ac4f	-0.22331356
42	0xbdf8301d	-0.12118552
43	0x3e8473e7	0.25869676
44	0xbdcf040a	-0.10108192
45	0x3cdfe2ca	0.027329821
46	0xbe431f1a	-0.19054833
47	0xbcf81e9d	-0.030288035
48	0x3d3300c3	0.0437019
49	0x3daceac6	0.08443217
50	0x3e047593	0.12935476
51	0xbd9d6d6e	-0.07686888
52	0xbcff2fbf	-0.031150697
53	0xbe03a6a1	-0.12856533
54	0xbcb10ed0	-0.021613508
55	0x3d3eb5c8	0.04656008
56	0xbe1eefe2	-0.15521196
57	0xbd6b2af5	-0.057414014
58	0x3dc8be81	0.09801961
59	0x3d390d1c	0.045178518
60	0xbde0b995	-0.10972897
61	0xbe7f2620	-0.24916887
62	0xbddce09d	-0.10785029
63	0xbd3fb9ec	-0.04680817
64	0xbdb0e117	-0.086366825
65	0xbe1b2334	-0.15150148
66	0xbe388010	-0.18017602
67	0xbd63ad99	-0.055585478
68	0x3d174968	0.03693524
69	0x3dc7bc8b	0.097527586
70	0x3d71e102	0.059052475
71	0x3de59ccb	0.112115465
72	0x3dc7cfae	0.09756409
73	0x3c887ad4	0.016660132
74	0xbd644778	-0.05573222
75	0x3da7beb0	0.08190668
76	0xbdcbd36c	-0.09952435
77	0xbe2de48a	-0.16981712
78	0x3e1ccf7a	0.15313521
79	0xbd731863	-0.05934943
80	0x3db2ddd0	0.087337136
81	0xbe8dabc7	-0.27670118
82	0xbe480fb8	-0.19537246
83	0xbe3495d7	-0.17635284
84	0x3d40e683	0.047094833
85	0x3e1a8a0f	0.15091728
86	0xbe0d5ead	-0.13805647
87	0x3deeaf52	0.116545334
88	0x3dc7a7ab	0.09748777
89	0x3e0ede00	0.13951874
90	0xbcb9feee	-0.022704568
91	0x3c8b2600	0.016985893
92	0x3e45a4ca	0.19301143
93	0x3ddedc2b	0.108818375
94	0xbe3c7a88	-0.18406117
95	0x3d3d6c9d	0.04624616
96	0x3d8b4d72	0.06801881
97	0xbdcb2500	-0.099191666
98	0x3d367619	0.04454622
99	0xbd42dca0	-0.047573686
100	0x3e027401	0.12739564
101	0xbe90c15c	-0.28272521
102	0xbe8bb373	-0.27285346
103	0xbe129ade	-0.1431689
104	0xbe3d3f1a	-0.18481103
105	0xbdb374e5	-0.0876253
106	0xbe3a70e6	-0.1820713
107	0xbe444ff2	-0.19171122
108	0xbe74b2d6	-0.23896345
109	0xbda90ff3	-0.08254995
110	0xbe52c1b8	-0.2058171
111	0xbded683b	-0.11592146
112	0x3d0fdada	0.035120822
113	0x3dc69235	0.096958555
114	0x3e286738	0.16445625
115	0xbe59273e	-0.21206376
116	0x3c586e5f	0.013209908
117	0x3da8591b	0.082201205
118	0xbd47fe37	-0.048826423
119	0xbd75b7a7	-0.059989598
120	0xbd2afe7b	-0.041746598
121	0x3dc238c5	0.09483484
122	0x3d76e34b	0.060275357
123	0x3dd5e0a6	0.10443239
124	0x3e16058d	0.14650555
125	0x3db58dd7	0.088649444
126	0x3db790f1	0.08963192
127	0xbd664c67	-0.056225207
128	0x3e1b5337	0.15168463
129	0xbdd5608d	-0.10418806
130	0xbe4ba415	-0.19886811
131	0x3e2ac2e0	0.16675901
132	0x3cdb4e48	0.026770726
133	0x3d88b508	0.06675154
134	0x3e0c1653	0.13680391
135	0x3dc02fc8	0.093841136
136	0x3d087bdc	0.033321247
137	0xbe304996	-0.17215571
138	0xbe92bd17	-0.2865989
139	0x3dbf0bb8	0.09328407
140	0xbe0e229b	-0.13880388
141	0x3dace6dd	0.08442471
142	0x3d279431	0.04091281
143	0x3da0a63f	0.07844209
144	0xbc8a2b8c	-0.016866468
145	0x3dd44b86	0.103659675
146	0x3de38238	0.11108822
147	0xbd964827	-0.07337981
148	0xbc4b1b0f	-0.012396588
149	0xbd8418da	-0.064500526
150	0xbda6600d	-0.08123789
151	0xbd119b6f	-0.035548624
152	0xbe2c6554	-0.16835529
153	0xbca6f0eb	-0.02037855
154	0x3d650052	0.05590851
155	0xbd2c30da	-0.042038776
156	0x3dd7541a	0.10514088
157	0xbde6e414	-0.11273971
158	0xbd7ebf95	-0.062194426
159	0x3da27c38	0.07933849
160	0x3b10b494	0.002208029
161	0xba81d7fb	-0.0009906286
162	0xbd20e546	-0.039281152
163	0x3d980201	0.07422257
164	0x3e07fd3f	0.132802
165	0xbe278cf2	-0.1636236
166	0x3d31512d	0.043290306
167	0x3dd141b8	0.10217613
168	0xbd606210	-0.05478102
169	0xbe801947	-0.25019285
170	0xbda0ea2f	-0.07857167
171	0xb9c0fa0d	-0.00036807396
172	0xbe05298e	-0.13004133
173	0xbdd43bc1	-0.1036296
174	0x3ce99279	0.028512226
175	0x3d913ba4	0.07091454
176	0xbde50906	-0.11183362
177	0xbe389eab	-0.18029277
178	0xbdc7bb9a	-0.09752579
179	0xbd95db1d	-0.07317183
180	0x3bb8d1d6	0.005640249
181	0xbdefd94a	-0.117113665
182	0x3df28d62	0.11843373
183	0xbd7787ac	-0.06043212
184	0x3df22e67	0.11825257
185	0xbb4efc24	-0.0031583393
186	0xbd7b87ff	-0.061408993
187	0x3da94549	0.08265168
188	0xbe53f1ed	-0.20697756
189	0x3da7b007	0.081878714
190	0xbe561bbe	-0.2090902
191	0xbbaf3445	-0.005346807
192	0xbbb2468d	-0.005440539
193	0xbd8226fb	-0.06355091
194	0xbe2aa253	-0.16663484
195	0x3e65248a	0.2237722
196	0x384d7f41	4.8994323e-05
197	0x3cafa1e1	0.021439495
198	0x3df67850	0.120346665
199	0xbd575d3a	-0.052579142
200	0x3d4e5c78	0.050381154
201	0x3dc0faf4	0.094228655
202	0xbc5a60c2	-0.013328733
203	0x3deb1d9c	0.11480257
204	0x3dec27c3	0.115310214
205	0xbd9ccf2f	-0.07656705
206	0x3e6f0f74	0.23345739
207	0xbe58bed9	-0.21166553
208	0x3dc209cd	0.094745256
209	0x3dbd096e	0.09230314
210	0x3d280035	0.041015822
211	0x3ddfe806	0.10932927
212	0x3d658171	0.056031648
213	0xbe8b0e35	-0.27159277
214	0xbdaca23b	-0.084293805
215	0x3d01e4b6	0.031712256
216	0x3d46a956	0.048501335
217	0xbd940e1c	-0.07229254
218	0xbcec2d0c	-0.028830074
219	0xbc7baee9	-0.015361526
220	0x3e1c88d3	0.1528657
221	0xbd247be0	-0.0401572
222	0x3db13065	0.08651809
223	0xbd8ec4bf	-0.0697112
224	0x3c4b5b66	0.012411928
225	0xbe131ab7	-0.1436566
226	0x3e01ca61	0.12674858
227	0x3d76c2d6	0.060244404
228	0x3ca2d6af	0.01987776
229	0xbd6e179f	-0.058127996
230	0xbda71f7a	-0.081603006
231	0x3c93bdba	0.018034805
232	0xbe608526	-0.21925792
233	0xbd94cfcc	-0.072661966
234	0x3d12132e	0.035662822
235	0xbd5a6263	-0.053316485
236	0xbe6f7505	-0.23384483
237	0xbe346091	-0.17614962
238	0xbccbffd2	-0.024902258
239	0xbd8a6f44	-0.067595035
240	0x3cbcbf58	0.023040459
241	0x3e06e1c6	0.13172063
242	0x3db19874	0.08671656
243	0xbe3188f5	-0.17337401
244	0x3dbfdcd6	0.09368293
245	0xbe8c0395	-0.27346483
246	0x3d96a0e8	0.07354909
247	0x3d6e5fb4	0.05819674
248	0xbe2e4563	-0.17018656
249	0xbd1db691	-0.038504187
250	0x3e5abd06	0.21361169
251	0xbdfbaa63	-0.12288358
252	0xbebae9a5	-0.36506382
253	0xbd8e2d96	-0.069422886
254	0x3e27bbf8	0.16380298
255	0x3ccd98b8	0.025097236

outfc.bias f4 [10]
0	0xbdd6b002	-0.104827896
1	0xbcc9c72b	-0.024631104
2	0x3c223687	0.009900696
3	0x3d7ccdf3	0.061719846
4	0xbd504b34	-0.05085297
5	0xbd82ed60	-0.06392932
6	0x3b6a5725	0.0035757509
7	0x3bba0eda	0.00567804
8	0x3e3c9480	0.18416023
9	0xbcacd986	-0.021099817
